Deep Q-Learning/results/100_e_2000_t_dqn_model.pt (torch, 410157 bytes, 6 tensors)

net.0.weight f4 [128, 728]
-0.04316824 -0.11909266 0.17594436 0.24738333 0.54204 0.08356753 -0.2463797 -0.02161094
-0.41118336 0.22494158 0.029553728 -0.17512725 -0.58457077 -0.10203409 0.24784027 -0.13122138
0.17999001 -0.05701497 -0.07292341 0.418158 -0.02543957 -0.56520337 -0.06731905 0.09871994
0.5174892 0.23205046 -0.2213503 -0.062116448 -0.64888483 0.20648855 0.21322319 -0.53938687
-0.15375629 -0.079310305 0.10699461 0.32551232 -0.20200777 -0.42731425 -0.510276 -0.370585
-0.22116993 -0.10988298 -0.12957937 -0.32942274 0.04968921 -0.0099703325 -0.69709337 -0.18730983
-0.15643692 -0.47689992 0.41554314 -0.24950726 0.045224715 -0.15685657 -0.57091737 0.17210642
-0.017687133 -0.38992998 -0.44547367 -0.12602021 -0.2450769 -0.3680896 -0.38212252 -0.4151463
0.13796073 -0.7103539 0.4375104 -0.027267886 -0.32752293 -0.64492255 -0.09044949 0.19389853
-0.52961373 -0.032239616 0.0021879615 -0.57981324 -0.27786776 -0.65313494 0.089809135 0.4360615
0.1592827 0.24643935 -0.09346827 0.249138 -0.25907978 -0.43087268 -0.27749458 0.15555477
-0.33143088 -0.30624038 -0.2829517 0.07242134 -0.13874163 0.1957294 -0.034363624 -0.07257522
-0.013818608 -0.21040118 -0.087255046 -0.7172742 -0.29289797 -0.26126787 -0.59238344 -0.16901875
0.3614485 0.19675764 -0.1224858 -0.36976904 -0.2214434 -0.20429477 0.007937289 -0.0727519
-0.4498197 -0.4714119 0.28818756 -0.13796234 -0.14743835 -0.088982955 -0.0036720417 -0.27508938
-0.30396667 -0.8868949 -0.15073726 -0.16314676 -0.051471755 0.1447527 -0.08780364 -0.31225824
0.002579117 0.53545517 -0.071342066 -0.14970069 -0.5954362 0.05756766 0.03593682 -0.37849635
-0.1619191 -0.21092397 0.49095917 0.09925372 0.044152062 -0.109791085 -0.11575699 0.22022122
-0.13016888 -0.3590766 -0.111177474 0.09643822 -0.3665256 -0.5163571 -0.17523415 -0.23414227
-0.5567785 0.16594991 -0.31177846 0.34900448 0.11757472 -0.5532233 0.35043156 -0.1866943
-0.23283622 0.41255704 0.16392897 -0.32361448 -0.14342166 -0.03506389 -0.18374522 0.37957016
-0.27370432 -0.66434485 0.15354322 -0.3048522 -0.22374931 0.020129308 -1.0690614 0.19929479
-0.4041971 -0.34324235 -0.2638459 0.28559187 0.043456625 0.22104484 -0.5099291 -0.12219752
0.4795461 -0.13649625 -0.13791025 0.090741 0.3267829 0.45519015 -0.2626587 -0.27585652
-0.1696154 -0.3094509 -0.16670144 -0.11033307 -0.45661694 -0.53234804 -0.93479925 0.18778738
-0.43588862 0.018181305 0.052817684 -0.29677063 -0.20952123 0.7576001 0.60475457 0.33522886
-0.2974927 -0.3729727 0.03934908 0.43962824 0.04926168 0.52993625 -0.21522407 0.38382855
-0.1413169 -0.36724564 0.33724952 0.15462151 -0.40747353 -0.64985716 0.06417901 0.13250788
0.52012014 0.20700838 0.32989466 -0.36368513 -0.55803084 -0.26358107 -0.22407109 -0.45231596
0.56608963 -0.18758789 0.29164103 0.17871104 -0.14487965 -0.32761294 0.106196806 0.30775437
-0.06863555 -0.35542884 -0.26400167 0.25893077 -0.027766963 -0.26876017 -0.2595994 0.1576448
-0.15946779 -0.25311753 -0.11836029 0.17169844 0.35644218 -0.3918184 0.007965602 0.18806054
00000000: 2ed1 30bd dae6 f3bd c22a 343e 0e52 7d3e
00000010: 22c3 0a3f 7425 ab3d f64a 7cbe 6d09 b1bc
00000020: a086 d2be 1657 663e a91a f23c 8f54 33be
00000030: 6ea6 15bf 40f7 d0bd d7c9 7d3e e65e 06be
00000040: 4d4f 383e 8788 69bd de58 95bd ce18 d63e
00000050: a566 d0bc 2bb1 10bf 92de 89bd ae2d ca3d
00000060: 2c7a 043f a39e 6d3e a7a9 62be d16d 7ebd
00000070: 511d 26bf bc71 533e 2e57 5a3e 4215 0abf
00000080: 4a72 1dbe 716d a2bd fd1f db3d 8da9 a63e
00000090: 20db 4ebe efc8 dabe 73a1 02bf 51bd bdbe
000000a0: 5f7a 62be 540a e1bd 74b0 04be 19aa a8be
000000b0: ea86 4b3d 9b5a 23bc b674 32bf 26ce 3fbe
000000c0: 0031 20be 3a2c f4be 12c2 d43e d57e 7fbe
000000d0: 8d3d 393d 029f 20be a427 12bf aa3c 303e
000000e0: 9be4 90bc e7a4 c7be 2015 e4be 710b 01be
000000f0: 70f5 7abe 3d76 bcbe 90a5 c3be 0e8e d4be
00000100: 9445 0d3e c1d9 35bf 5d01 e03e e760 dfbc
00000110: 16b1 a7be a519 25bf 953d b9bd 568d 463e
00000120: c494 07bf b00d 04bd e763 0f3b a46e 14bf
00000130: af44 8ebe da33 27bf daed b73d 7443 df3e
00000140: 011b 233e 995a 7c3e 4b6c bfbd 081e 7f3e
00000150: 1ba6 84be 589b dcbe c513 8ebe c049 1f3e
00000160: 4fb1 a9be 8acb 9cbe 0cdf 90be a451 943d
00000170: 4912 0ebe 4a6d 483e dfc0 0cbd 51a2 94bd
00000180: 7167 62bc 6873 57be c6b2 b2bd 489f 37bf
00000190: b9f6 95be e7c4 85be 71a6 17bf 4013 2dbe
000001a0: c70f b93e d67a 493e d6d9 fabd 5e52 bdbe
000001b0: 0fc2 62be a632 51be 670b 023c f3fe 94bd
000001c0: c54e e6be e75c f1be 528d 933e 0046 0dbe
000001d0: 14fa 16be b23c b6bd a3a6 70bb 84d8 8cbe
000001e0: 85a1 9bbe 8b0b 63bf de5a 1abe f20f 27be
000001f0: 0cd4 52bd 0d3a 143e 65d2 b3bd 50e0 9fbe
00000200: 6706 293b 9713 093f ca1b 92bd 234b 19be
00000210: 826e 18bf 11cc 6b3d 7d32 133d 46ca c1be
00000220: 1fce 25be 74fc 57be 005f fb3e 8945 cb3d
00000230: cbd8 343d 26da e0bd 0012 edbd ac81 613e
00000240: fe4a 05be e3d8 b7be 04b1 e3bd 6781 c53d
00000250: 3ea9 bbbe fb2f 04bf 9570 33be fec2 6fbe
00000260: 0989 0ebf c6ee 293e 6da1 9fbe b7b0 b23e
00000270: 04cb f03d 0ba0 0dbf c46b b33e ca2c 3fbe
00000280: 9e6c 6ebe ad3a d33e ffdc 273e ccb0 a5be
00000290: 21dd 12be 279f 0fbd b527 3cbe 0557 c23e
000002a0: f922 8cbe 8112 2abf 6f3a 1d3e 9615 9cbe
000002b0: 8a1e 65be 38e6 a43c 01d7 88bf ef13 4c3e
000002c0: ecf2 cebe 76bd afbe cf16 87be 1939 923e
000002d0: 93ff 313d 9459 623e b78a 02bf b242 fabd
000002e0: 1187 f53e acc5 0bbe 5838 0dbe 6bd6 b93d
000002f0: 1750 a73e af0e e93e 337b 86be 113d 8dbe
00000300: a9af 2dbe 5970 9ebe c8b3 2abe 4ef6 e1bd
00000310: b2c9 e9be f647 08bf 014f 6fbf 564b 403e
00000320: cb2c dfbe f6f0 943c 5b57 583d 52f2 97be
00000330: bc8c 56be 15f2 413f 32d1 1a3f 1ea3 ab3e
00000340: f750 98be 47f6 bebe 802c 213d f416 e13e
00000350: 9ec6 493d e7a9 073f b363 5cbe 2d85 c43e
00000360: 61b5 10be 9f07 bcbe f8ab ac3e 1a55 1e3e
00000370: 5fa0 d0be 0a5d 26bf 4970 833d 25b0 073e
00000380: 9826 053f 01fa 533e f4e7 a83e f034 babe
00000390: 1cdb 0ebf 19f4 86be e472 65be f595 e7be
000003a0: 40eb 103f 0a17 40be f951 953e 0700 373e
000003b0: 555b 14be e2bc a7be b67d d93d fb91 9d3e
000003c0: cc90 8cbd c5fa b5be 3a2b 87be 9392 843e
000003d0: 8b77 e3bc ef9a 89be 36ea 84be a36d 213e
000003e0: 864b 23be 9f98 81be e166 f2bd b7d1 2f3e
000003f0: 977f b63e 6c9c c8be 2882 023c f192 403e

net.0.bias f4 [128]
0.18182816 0.4258977 0.15363312 0.07975514 0.2971101 0.060568888 0.022192685 0.09335104
0.15924416 0.10073328 0.293975 0.4670652 0.21647272 -0.02717983 0.15110043 0.04730494
0.0568665 0.12719704 0.399641 0.27480736 0.29976478 0.023468425 0.006997897 0.12450469
0.027727444 0.05318016 0.20476788 -0.012400541 0.1164296 0.28864983 0.08030377 0.25903726
1.2132058 0.12732783 0.30469716 1.8853133 -0.067338206 0.24858989 0.07732347 0.31096694
0.56674427 0.21038681 2.1581724 0.04704082 0.21345773 1.4507312 0.16200967 0.07185881
0.11006581 -0.054718494 0.34788918 0.20855144 0.10301703 0.28272212 0.004104277 0.48207706
0.43386155 0.03965306 0.1265724 0.44038725 0.3230651 0.4105137 0.24897394 0.5260504
1.0050437 0.030847367 0.09976311 0.5255036 0.23651923 0.15553516 0.07043563 0.010677103
0.40495095 0.42050862 0.07651306 0.4121806 0.15822509 0.16950977 0.15259449 0.20477834
0.51528156 0.7344708 0.063588895 0.2558016 0.5568441 0.16499037 0.15986119 0.7211896
0.046912845 0.62740594 0.059264325 0.46189418 0.5136154 0.0055592936 0.3141257 -0.07409897
0.16399816 1.0349677 1.0958003 -0.04830668 -0.03289409 0.1543751 0.039678585 0.12769727
0.20712157 0.21734266 0.5169845 0.3198525 0.19113588 0.22746821 0.07308166 0.17303157
0.48509392 0.3232997 0.21890765 0.0927195 0.18998425 0.44372895 0.18676528 0.26303542
0.20471475 0.054171626 0.2301848 0.5864411 0.23798946 0.21928445 1.0096638 0.106944636
00000000: 2931 3a3e 430f da3e 0052 1d3e aa56 a33d
00000010: d11e 983e 1517 783d 6fcd b53c d42e bf3d
00000020: e710 233e 404d ce3d e483 963e 2b23 ef3e
00000030: 06ab 5d3e 3ca8 debc 12ba 1a3e d3c2 413d
00000040: d9ec 683d f13f 023e bf9d cc3e 8db3 8c3e
00000050: c57a 993e db40 c03c 9d4e e53b 51fc fe3d
00000060: aa24 e33c 70d3 593d acae 513e a42b 4bbc
00000070: a472 ee3d e9c9 933e 4e76 a43d 88a0 843e
00000080: 544a 9b3f 3a62 023e 4401 9c3e f251 f13f
00000090: 9de8 89bd 598e 7e3e c45b 9e3d 0f37 9f3e
000000a0: 2716 113f a46f 573e 7f1f 0a40 e0ad 403d
000000b0: aa94 5a3e 8fb1 b93f dde5 253e b62a 933d
000000c0: 2f6a e13d 8020 60bd 881e b23e 828e 553e
000000d0: 98fa d23d f4c0 903e 2c7d 863b ced2 f63e
000000e0: 1a23 de3e 3f6b 223d 329c 013e 707a e13e
000000f0: ca68 a53e da2e d23e 06f3 7e3e 3dab 063f
00000100: 46a5 803f 9eb3 fc3c 9a50 cc3d 6787 063f
00000110: 1932 723e 9c44 1f3e 8e40 903d 04ef 2e3c
00000120: bb55 cf3e e84c d73e e1b2 9c3d 5609 d33e
00000130: c205 223e f893 2d3e bb41 1c3e 6ab1 513e
00000140: 7ee9 033f 4706 3c3f e53a 823d 6df8 823e
00000150: 568d 0e3f 3cf3 283e a7b2 233e e29f 383f
00000160: af27 403d ad9d 203f 26bf 723d 657d ec3e
00000170: 4d7c 033f bc2a b63b 15d5 a03e 33c1 97bd
00000180: 22ef 273e d279 843f 2f43 8c3f 3add 45bd
00000190: f4bb 06bd 8214 1e3e 0386 223d 13c3 023e
000001a0: ad17 543e 138f 5e3e 1959 043f b5c3 a33e
000001b0: 20b9 433e 6ded 683e d6ab 953d 302f 313e
000001c0: 3b5e f83e 8a87 a53e 5429 603e b9e3 bd3d
000001d0: 3b8b 423e 7130 e33e 663f 3f3e 94ac 863e
000001e0: bea0 513e 11e3 5d3d 90b5 6b3e 0121 163f
000001f0: 82b3 733e 1a8c 603e aa3c 813f ca05 db3d

net.2.weight f4 [64, 128]
1.8390921 1.9697601 -0.52863467 -0.28826323 1.880369 -1.8779411 -1.7485902 -2.020035
0.25592077 -0.6779632 0.5574844 0.22401936 0.37172678 -0.46706316 1.5125836 -1.2059385
1.7562541 -1.7599926 2.5141714 1.6786783 2.1895528 -0.4933531 0.89781445 -2.010573
-1.4226208 -1.1790096 0.57202435 -1.039608 -0.9440957 -0.08803642 -1.4042208 -1.9365155
3.7631009 -1.0550991 2.1963491 -1.6380564 -0.9748638 -0.39534125 0.040591 -2.27363
3.865701 1.659099 2.6329947 -0.5459436 0.623603 -2.10651 -0.13384359 1.0669428
-0.25510514 -0.983865 0.21791106 -0.028813174 -1.8301207 1.9216636 -0.31167608 1.2784879
1.2708515 0.3341129 -2.0097227 -1.3528537 0.23378924 2.3329432 0.4995024 1.655568
-2.7577915 -0.22109537 -2.058682 2.5151677 1.2688271 1.228271 0.50635105 0.06326356
1.7120411 1.399666 -1.3459733 1.6015453 0.10013274 0.2663443 -0.16976394 -1.4469602
2.2455652 2.6981134 -2.205048 1.2663667 2.0385807 -0.036029134 -1.5875919 -2.6594434
-1.6854488 -1.6326605 0.30313027 3.036645 2.9777875 -2.2018344 -0.33471748 -2.192143
-0.33167955 -1.0990734 -2.7400546 -0.49655715 -1.9506302 0.6809732 -1.7558945 -1.0297526
1.2251607 0.85389304 2.516216 1.1837094 0.4383316 -1.0451136 -0.8286275 -0.67756057
2.757754 0.20522325 1.7400601 0.1104585 -0.6282779 -1.8660691 1.6212369 0.26721275
0.58649325 -0.4758294 -0.5749573 1.7611301 0.6728765 -0.54522794 -2.6706462 0.59185576
2.123373 -3.5937064 2.4590926 2.4868588 -3.0032945 2.691949 1.9827203 2.9561062
2.300134 2.5350688 2.7861369 2.610257 3.073822 1.8638716 2.7842424 2.1820705
1.8030623 2.8843699 -3.5648258 -2.9765632 -3.340881 2.1468723 2.3704247 3.0921817
2.9035726 2.535795 2.2759807 2.5396788 2.4348226 2.378997 2.6837924 2.939862
-2.1222641 2.4926093 -2.603381 1.0650188 2.8370743 2.5507717 2.1033905 2.2607937
-2.4234319 -2.883585 -0.40078998 1.4063191 2.7798152 1.3607825 2.1727126 3.1134243
2.4308586 2.7657979 2.4273503 2.324657 2.3163383 -3.5748837 2.089659 -3.90419
3.5716527 1.8689839 2.4230094 1.0728877 3.2315326 -3.1958697 2.7670882 -3.4996517
1.8062085 2.36251 2.7160752 -2.9910529 3.4153209 2.843234 2.4457378 2.650684
-3.2672305 -3.4742918 2.5095723 -1.3978685 2.3577695 2.5904472 2.0975702 2.5653784
-3.4737248 -2.4199839 2.7958834 -3.044667 3.6335192 2.1148655 2.4692807 2.700381
2.5360928 2.25306 2.6010115 3.0117712 -3.4340725 3.0417938 2.615935 2.337252
2.604018 2.1047115 1.0319176 1.9063591 2.8580756 -2.3629408 2.5319977 2.762291
-2.747562 2.3845901 -3.2552423 3.0742662 3.141314 2.6856236 2.2902164 2.6289062
-3.557906 3.094808 -3.1836607 2.4552085 2.668563 1.8980881 2.524997 2.9540656
2.8296704 2.4515343 2.6161838 2.9321325 2.7390246 3.053637 1.4682403 2.6000228
00000000: 5f67 eb3f 1921 fc3f 9a54 07bf 3d97 93be
00000010: eeaf f03f 6060 f0bf ced1 dfbf 4148 01c0
00000020: 0c08 833e ff8e 2dbf 4cb7 0e3f 5565 653e
00000030: f952 be3e e722 efbe 579c c13f 315c 9abf
00000040: efcc e03f 7047 e1bf 2fe8 2040 eede d63f
00000050: a221 0c40 c798 fcbe 2bd7 653f 3aad 00c0
00000060: 7018 b6bf c9e9 96bf 3070 123f e011 85bf
00000070: 41b0 71bf 704c b4bd 82bd b3bf bddf f7bf
00000080: a5d6 7040 7d0d 87bf fc90 0c40 d5ab d1bf
00000090: ad90 79bf 2b6a cabe c042 263d 2783 11c0
000000a0: a567 7740 5b5d d43f fc82 2840 f6c2 0bbf
000000b0: 72a4 1f3f 0fd1 06c0 4b0e 09be 9591 883f
000000c0: 249d 82be 94de 7bbf 1424 5f3e 9b09 ecbc
000000d0: 6541 eabf 13f9 f53f 0294 9fbe 7ea5 a33f
000000e0: 43ab a23f d910 ab3e 4c9f 00c0 4f2a adbf
000000f0: 7266 6f3e f14e 1540 c7be ff3e a7e9 d33f
00000100: a87f 30c0 d366 62be 72c1 03c0 82f8 2040
00000110: ed68 a23f fc37 9d3f 39a0 013f 5390 813d
00000120: 2a24 db3f 4128 b33f da48 acbf 70ff cc3f
00000130: 6512 cd3d 485e 883e 99d6 2dbe fe35 b9bf
00000140: 57b7 0f40 e4ad 2c40 821f 0dc0 4e18 a23f
00000150: 1b78 0240 4993 13bd 3636 cbbf 5234 2ac0
00000160: c9bc d7bf 05fb d0bf e433 9b3e 6458 4240
00000170: 1294 3e40 dbea 0cc0 1760 abbe 124c 0cc0
00000180: e7d1 a9be 70ae 8cbf 0e5d 2fc0 bd3c febe
00000190: 40ae f9bf 4254 2e3f 27c1 e0bf efce 83bf
000001a0: 11d2 9c3f bc98 5a3f af09 2140 ca83 973f
000001b0: 006d e03e 48c6 85bf ef20 54bf 9c74 2dbf
000001c0: 0b7f 3040 0b26 523e 4aba de3f 1138 e23d
000001d0: d2d6 20bf 5adb eebf b184 cf3f 1cd0 883e
000001e0: 6c24 163f e99f f3be 6730 13bf b66c e13f
000001f0: a241 2c3f 0f94 0bbf deeb 2ac0 dc83 173f
00000200: 58e5 0740 49ff 65c0 c661 1d40 b228 1f40
00000210: fa35 40c0 e448 2c40 c7c9 fd3f d830 3d40
00000220: 6535 1340 913e 2240 1150 3240 730e 2740
00000230: 80b9 4440 5893 ee3f 0731 3240 0ba7 0b40
00000240: bfca e63f 8499 3840 1b26 64c0 0380 3ec0
00000250: ffd0 55c0 5b66 0940 0ab5 1740 4ee6 4540
00000260: 22d4 3940 774a 2240 aba9 1140 198a 2240
00000270: 22d4 1b40 7d41 1840 41c3 2b40 b326 3c40
00000280: 2dd3 07c0 e986 1f40 cb9d 26c0 8952 883f
00000290: a092 3540 d83f 2340 f39d 0640 d8b0 1040
000002a0: 8219 1bc0 a88c 38c0 5834 cdbe 4402 b43f
000002b0: 7ee8 3140 1f2e ae3f b90d 0b40 5842 4740
000002c0: 3093 1b40 d502 3140 b559 1b40 2ec7 1440
000002d0: e33e 1440 e5ca 64c0 f9bc 0540 40de 79c0
000002e0: f595 6440 dd3a ef3f 9612 1b40 6254 893f
000002f0: 6ed1 4e40 2189 4cc0 f917 3140 4bfa 5fc0
00000300: d731 e73f 5d33 1740 2dd4 2d40 696d 3fc0
00000310: 9e94 5a40 8cf7 3540 f886 1c40 cfa4 2940
00000320: 4e1a 51c0 cc5a 5ec0 d59c 2040 5bed b2bf
00000330: b2e5 1640 e3c9 2540 973e 0640 292f 2440
00000340: 8251 5ec0 04e1 1ac0 c1ef 3240 d3db 42c0
00000350: 948b 6840 f559 0740 b208 1e40 0bd3 2c40
00000360: 584f 2240 2332 1040 f976 2640 dcc0 4040
00000370: d8c7 5bc0 c0ac 4240 7b6b 2740 8995 1540
00000380: 3ba8 2640 98b3 0640 e015 843f 9303 f43f
00000390: b6ea 3640 6c3a 17c0 400c 2240 60c9 3040
000003a0: 0ed8 2fc0 209d 1840 e455 50c0 c7c0 4440
000003b0: 4a0b 4940 42e1 2b40 e892 1240 0040 2840
000003c0: bbb4 63c0 5611 4640 19c1 4bc0 2322 1d40
000003d0: bcc9 2a40 8df4 f23f 8d99 2140 690f 3d40
000003e0: 5219 3540 f0e5 1c40 8e6f 2740 0fa8 3b40
000003f0: 2e4c 2f40 ca6e 4340 4cef bb3f c666 2640

net.2.bias f4 [64]
1.2114011 0.5156257 0.88229877 0.4851502 -0.18322256 1.3924963 -0.058253504 0.5250628
0.29002064 0.10109288 -0.018528704 1.9007901 2.138624 1.2058642 0.31603035 0.37325233
1.3445295 0.25047222 0.34433383 1.2815355 1.7761773 0.28233156 1.2701722 0.3094076
0.45507342 0.42986003 0.33808264 1.111924 0.21064694 0.30717155 0.25118658 0.24876416
1.1925961 0.9002937 0.17904274 0.68743634 0.47461095 0.24193595 0.2819024 1.2712989
0.47168338 0.4581116 0.25785413 0.2764835 0.16520499 0.84219325 0.33893666 0.5174346
1.3024336 1.0398128 -0.12769324 1.071914 1.8047122 0.4739236 1.0315045 0.4445594
1.118491 0.77817845 0.31813014 0.43461257 0.2524045 1.3303492 0.41865432 1.2836937
00000000: 310f 9b3f 0c00 043f 55de 613f 9b65 f83e
00000010: b29e 3bbe 523d b23f 3a9b 6ebd 846a 063f
00000020: 967d 943e c909 cf3d 82c9 97bc 174d f33f
00000030: 37df 0840 c259 9a3f bbce a13e ee1a bf3e
00000040: 8b19 ac3f e53d 803e 864c b03e 5b09 a43f
00000050: c759 e33f c38d 903e 0195 a23f ac6a 9e3e
00000060: 62ff e83e 9d16 dc3e 2b19 ad3e 8753 8e3f
00000070: d5b3 573e 9745 9d3e 879b 803e 08bc 7e3e
00000080: fda6 983f a679 663f fb56 373e d4fb 2f3f
00000090: 3500 f33e 0fbe 773e 8355 903e ecb9 a23f
000000a0: 7c80 f13e 9b8d ea3e 7505 843e 3f8f 8d3e
000000b0: 7f2b 293e fa99 573f 1b89 ad3e 9876 043f
000000c0: 25b6 a63f 9618 853f 04c2 02be 7a34 893f
000000d0: cf00 e73f 1da6 f23e 5708 843f 4a9d e33e
000000e0: b72a 8f3f b436 473f f4e1 a23e 8a85 de3e
000000f0: 2a3b 813e e248 aa3f dc59 d63e 1350 a43f

net.4.weight f4 [3, 64]
3.872803 2.672208 2.4359558 2.6985588 0.07539818 0.84900665 2.2959898 2.7236342
2.7460368 2.7463386 2.6604698 1.652584 2.1765058 2.8413215 2.7944443 2.8237514
-2.957565 2.6608071 2.6871004 -2.1786537 2.4202633 2.8600478 -2.6880257 2.6686978
2.5868022 1.2473594 2.2652967 2.5465496 2.584981 2.6483939 2.6567192 2.5919096
-3.380798 2.3739324 3.265495 3.010515 2.7878468 2.5606885 2.7430265 -2.9894562
2.661999 2.7685213 2.5564256 3.11144 2.7627304 2.4322538 2.725365 2.7232034
-2.5971768 2.4321647 2.1890583 -0.6798504 1.7229649 2.816258 2.4459794 2.8175712
3.2329323 2.782292 2.635858 2.8543127 2.603472 -2.9901063 2.5539281 -0.5702483
4.386155 2.6195266 1.426339 2.7869906 -0.0099604335 2.7183003 1.1746138 2.8421552
2.7271335 1.7337666 1.2376164 2.5548267 2.5083716 2.500177 2.5096004 2.7699404
-2.837117 2.516471 2.2429416 -2.9418874 1.493713 2.439523 -2.8503237 2.8784273
1.5649934 2.7164645 2.4139926 2.5263758 2.8178084 2.6503572 1.7697309 2.706956
-2.56344 1.4605318 2.011772 3.0808742 2.7739408 2.5252042 2.622859 -2.7146661
2.628293 2.910477 2.7593038 2.5342329 2.68671 -0.11271895 2.7315025 2.7016923
-2.829654 2.5112386 -1.1533856 -2.5385513 2.5570154 2.746002 1.8037794 2.8966956
2.9028454 3.3873203 2.7486799 2.7937646 2.6775339 -2.7754133 1.5208142 -2.3210917
6.2526855 2.913358 2.9385548 2.882998 -0.0021618728 2.009094 3.6075346 2.956353
3.6849859 3.8348296 3.821007 2.8345225 2.6313384 0.32986498 2.9948418 3.3452263
-3.3849294 3.5748887 3.4739637 -3.64845 2.9075608 3.5211782 -3.6247144 3.7195578
3.1024911 2.5966225 3.1846738 2.5815437 3.7986898 3.7089188 3.3547373 3.705487
-3.607566 2.96616 4.13814 3.4778612 3.49336 3.5805237 3.6675904 -3.5023334
3.0770059 3.7801063 3.64488 4.0394726 4.3286104 -0.011958402 3.756886 3.015372
-3.7327204 2.7785885 2.957154 -4.5326757 1.5502952 3.2142332 3.042659 3.8455083
1.8154752 3.2984037 3.7550724 3.6365812 3.5986629 -3.3817015 2.967708 -4.074013
00000000: 01dc 7740 7505 2b40 b3e6 1b40 30b5 2c40
00000010: 5c6a 9a3d 8058 593f 7ff1 1240 0650 2e40
00000020: 11bf 2f40 03c4 2f40 2345 2a40 df87 d33f
00000030: df4b 0b40 36d8 3540 2dd8 3240 58b8 3440
00000040: bf48 3dc0 aa4a 2a40 74f9 2b40 106f 0bc0
00000050: 98e5 1a40 060b 3740 9d08 2cc0 f2cb 2a40
00000060: 2b8e 2540 79a9 9f3f 9ffa 1040 abfa 2240
00000070: 5470 2540 497f 2940 b007 2a40 d9e1 2540
00000080: ff5e 58c0 82ee 1740 dffd 5040 47ac 4040
00000090: 156c 3240 52e2 2340 bf8d 2f40 4053 3fc0
000000a0: 315e 2a40 742f 3140 7a9c 2340 d521 4740
000000b0: 93d0 3040 0caa 1b40 616c 2e40 f748 2e40
000000c0: 2538 26c0 96a8 1b40 8819 0c40 ad0a 2ebf
000000d0: 1d8a dc3f 923d 3440 ed8a 1c40 1653 3440
000000e0: 5de8 4e40 1211 3240 e6b1 2840 0fad 3640
000000f0: 499f 2640 e75d 3fc0 8f73 2340 cbfb 11bf
00000100: 625b 8c40 53a6 2740 4792 b63f 0e5e 3240
00000110: 1631 23bc a2f8 2d40 bf59 963f dfe5 3540
00000120: 5b89 2e40 10ec dd3f 376a 9e3f 4882 2340
00000130: 2989 2040 e602 2040 4b9d 2040 b446 3140
00000140: 5393 35c0 dc0d 2140 5b8c 0f40 e247 3cc0
00000150: fd31 bf3f 2521 1c40 b46b 36c0 2738 3840
00000160: b451 c83f 8eda 2d40 db7e 1a40 24b0 2140
00000170: f956 3440 749f 2940 8b86 e23f c43e 2d40
00000180: 670f 24c0 b5f2 ba3f dfc0 0040 0b2d 4540
00000190: 3f88 3140 f29c 2140 ecdc 2740 17bd 2dc0
000001a0: f435 2840 4145 3a40 6f98 3040 df30 2240
000001b0: 0ef3 2b40 31d9 e6bd f0d0 2e40 87e8 2c40
000001c0: 0d19 35c0 22b8 2040 24a2 93bf a077 22c0
000001d0: 24a6 2340 7fbe 2f40 3ee2 e63f 7663 3940
000001e0: 38c8 3940 dbc9 5840 5fea 2f40 0acd 3240
000001f0: b75c 2b40 5fa0 31c0 0aaa c23f c48c 14c0
00000200: 0016 c840 7574 3a40 4811 3c40 0a83 3840
00000210: 35ae 0dbb ff94 0040 d9e1 6640 e334 3d40
00000220: cfd6 6b40 d96d 7540 618b 7440 d168 3540
00000230: d967 2840 10e4 a83e 7dab 3f40 3018 5640
00000240: afa2 58c0 faca 6440 6c55 5e40 3480 69c0
00000250: 7a15 3a40 fc5a 6140 52fb 67c0 3c0d 6e40
00000260: 378f 4640 102f 2640 b2d1 4b40 0338 2540
00000270: bc1d 7340 ed5e 6d40 04b4 5640 b326 6d40
00000280: 5de2 66c0 91d5 3d40 a56b 8440 4795 5e40
00000290: 3693 5f40 4d27 6540 cdb9 6a40 3b26 60c0
000002a0: aaed 4440 43ed 7140 b745 6940 5c43 8140
000002b0: fa83 8a40 2ced 43bc d270 7040 dbfb 4040
000002c0: e4e4 6ec0 65d4 3140 0342 3d40 ae0b 91c0
000002d0: 1370 c63f ffb5 4d40 edba 4240 cf1c 7640
000002e0: 7e61 e83f 0c19 5340 1b53 7040 bfbd 6840
000002f0: 7e50 6640 cc6d 58c0 eeee 3d40 515e 82c0

net.4.bias f4 [3]
1.4851514 1.341822 0.9063175
00000000: 7119 be3f d3c0 ab3f 6c04 683f
