Deep Q-Learning/results/300_dqn_model.pt (torch, 410157 bytes, 6 tensors)

net.0.weight f4 [128, 728]
00000000: 8f02 14bd 0f4b 0f3d 54ad 2fbe 9356 3dbe
00000010: d289 39be 6730 5d3e fb76 283d 3e1d fcbd
00000020: 6528 423d d48b 19be 3ec1 98bd e508 9abd
00000030: 7fb1 36bc 8674 d2bd 2fca 463b 38b4 95bd
00000040: 6dd9 593d 466e 65bd d9a7 acbe e625 19be
00000050: 9aa1 6ebd 9aa3 f1bd bf05 a33c 8fe0 2bbe
00000060: 5bd3 de3d 6607 efbd f346 e1bd 0d92 08bd
00000070: 4d82 dc3d 323a e4bb 113a 0abe 3ef1 56be
00000080: be04 3cbe b791 883d a762 8bbb 9e7f b9bd
00000090: a891 0bbe 99c5 5bbd 5d52 babd efd0 b33c
000000a0: c671 97bd 1839 afbd d4e8 cdbd 4032 e9bc
000000b0: 5bb0 90be 3359 cdbd 25c4 90be 5911 a2bc
000000c0: 2cb1 1e3e e45f c83a 0efc 0abe 80d0 f1bd
000000d0: d2a5 4dbd 4c39 02be 0373 10be 1b01 56be
000000e0: 3fb8 b1bd d3f9 40be d7eb 90bd 73a1 813d
000000f0: 0fe4 9cbd 3fb3 55bd 1275 45bd 418d 6abd
00000100: 046f bbbd 1580 d8bd b8f9 f5bd 7f76 a0bd
00000110: ca74 f7bd f493 893d 8165 cbbd b66f adbd
00000120: fb46 2bbe 64be b33b 389c d1bd c376 febc
00000130: 37ac edbc c044 e03d bf57 a7bd bcec 34bc
00000140: 1663 e0bc da83 6bbe bc71 e13d fc13 92bc
00000150: 169d b2be 25df 28be 3f5a 92bd fc21 32bd
00000160: 020d c3bd 7849 43be 6fd6 31be 0c21 a73d
00000170: 79e0 07be 540a 183d 24ad 933d e975 36be
00000180: e930 62be 5a07 e3bd 5fb2 9fbe f855 9ebd
00000190: cb67 17bd 5420 22be 8de1 8bbd c591 2fbd
000001a0: 55e0 05be c4d4 9b3c 195a c8bc de8c e8bd
000001b0: cf29 2ebe b598 01be 4fe5 033e 09f9 0ebd
000001c0: 158a 95bc aaa5 89bd cd8f a7bd 4e24 8dbd
000001d0: bd39 58bd 4800 04be d7d9 f4bd bdfe 5ebd
000001e0: d138 ccbc 2747 a93c dc75 67bd ebaf 113d
000001f0: aeb8 25bd e176 a5bd a436 2fbe 1d46 7fbd
00000200: d2c1 8fbd c326 fabd 8524 103c 93cb 07bd
00000210: abc4 83bd 76e5 a9bc 75b2 d2bd 9235 943d
00000220: 7fde 14be 710f ddbd 5f61 a6bc 1f4f 59bc
00000230: 2321 55bd eb96 cfbc b4f5 efbd 6288 69bd
00000240: 12e2 8ebe 2936 12bc 0021 823d c1ea 843c
00000250: c1b9 913d 81a1 34be ad83 adbc 306b 37be
00000260: 1291 69be 662e 9fbd 79f2 43be e481 0d3d
00000270: d2fe 10be 89f0 f2bd 9e0f 2e3c 5aba 8ebd
00000280: 5147 f73c 7854 9bbd af89 d8bd a4ed 0ebe
00000290: b8a3 f8bd 22ba 0e3e 213f d4bd cc19 fdbd
000002a0: 4181 30be bfb3 e1bd 39b3 b9bc 8608 4a3b
000002b0: 22aa b43c 643f cdbd af39 acbd 395b 1bbe
000002c0: b48f dabd a4f0 2ebe 3af4 343e f79e 3b3d
000002d0: 1699 8dbd 90c4 b33b 298d 913c 988b d03c
000002e0: 4c24 77be 07d1 a33c 54f1 c6bd 55fd 263d
000002f0: 417f 4dbe e528 6a3c 60a3 853d abf2 17bd
00000300: ee19 cabe d974 23be 2953 913d bfc2 90be
00000310: b09c d0ba 4d89 66bd 8b37 99bd 7552 c73d
00000320: 9087 e53c 5f30 32bd 149a f6bd ea61 753d
00000330: 4a52 10be b776 333e 7e5e 07be 7786 46be
00000340: 39a1 75bd bed1 52bd 49d0 cdbd 8d9a 6cbc
00000350: ccdb 38be 2ffb c6bd 0a51 053e 9f67 e73d
00000360: fb33 3d3d fd5a 6bbd 1b2b c4bd b74e eebd
00000370: f6d0 86bc 4e61 59be f40b 19be 34cc 05be
00000380: 61b5 613d a98b 84bd 3529 34be bead febd
00000390: e344 ca3d 716f 5ebe 8a2d 6abd fcbd f0bd
000003a0: 2ce1 77bd 96be 87bc 5244 a83d c170 213c
000003b0: 0280 cebd 1799 17be b5e2 bb3c 010f 8dbd
000003c0: c5b4 3dbd 734c 9f3c 6a66 b9bc ce3d c5bd
000003d0: d3ef 17be 6c87 c23d 8f8f ccbc ea02 393e
000003e0: db99 db3d d72e ca3c 3bea 93bc 8978 bb3b
000003f0: 5618 46bc 3d1c 5cbe a218 94bd 48eb c3bd
-0.036135253 0.03498369 -0.17155963 -0.18490057 -0.1811898 0.21600495 0.041129094 -0.12310265
0.047401804 -0.14994746 -0.07458733 -0.07521228 -0.011150717 -0.10276131 0.0030332913 -0.073097646
0.05318587 -0.056013368 -0.33721808 -0.14955863 -0.058259584 -0.11798783 0.0199002 -0.16784881
0.108801566 -0.11671333 -0.109998606 -0.03334241 0.107670404 -0.0069649452 -0.13498713 -0.20990464
-0.18361184 0.06668418 -0.0042537036 -0.09057544 -0.13629782 -0.05365524 -0.09097741 0.021950213
-0.073947474 -0.08555812 -0.10054174 -0.028466344 -0.2825955 -0.10026779 -0.28274646 -0.019783663
0.15497273 0.0015287367 -0.13572714 -0.11807346 -0.050206967 -0.1271717 -0.14106373 -0.20898859
-0.0867772 -0.188453 -0.07076233 0.06329622 -0.07660686 -0.052172896 -0.04820735 -0.057263616
-0.09152034 -0.10571305 -0.12010521 -0.07835101 -0.120828226 0.06717673 -0.0993147 -0.08468573
-0.16726296 0.005485343 -0.102348745 -0.03106249 -0.029012782 0.10950613 -0.08171033 -0.01104277
-0.027390998 -0.22999516 0.11008021 -0.017831795 -0.34885472 -0.16491373 -0.07146119 -0.04348944
-0.095239654 -0.19070995 -0.17366956 0.081606 -0.13269223 0.037119225 0.07210758 -0.17818417
-0.2208897 -0.110853866 -0.31190774 -0.07731241 -0.03696422 -0.15832645 -0.0683013 -0.042863626
-0.13073857 0.019022353 -0.024457024 -0.11354993 -0.17008136 -0.1265591 0.12880443 -0.034905467
-0.01825432 -0.06721051 -0.08181725 -0.0689169 -0.05278944 -0.12890732 -0.11955612 -0.054442156
-0.024929436 0.02066381 -0.056508884 0.03556816 -0.040459327 -0.08079315 -0.17110687 -0.062322725
-0.0701939 -0.122144245 0.008797769 -0.033153128 -0.06433996 -0.020739298 -0.10287944 0.0723678
-0.14538 -0.10793961 -0.020310102 -0.013263493 -0.052033555 -0.025340518 -0.11716786 -0.05701483
-0.27906853 -0.008924046 0.063539505 0.01622522 0.07115508 -0.17639734 -0.021180952 -0.17911983
-0.22809246 -0.07772522 -0.19135465 0.0345477 -0.14159706 -0.11862285 0.010623841 -0.069691375
0.030185373 -0.075844705 -0.10573136 -0.1395784 -0.12140602 0.13938192 -0.103636034 -0.12358436
-0.17236806 -0.11020612 -0.022668468 0.0030827834 0.022053782 -0.100218564 -0.0840944 -0.15171517
-0.106719404 -0.17083985 0.1767129 0.045805898 -0.069139645 0.0054860786 0.017767506 0.025457188
-0.2413494 0.019997133 -0.097139984 0.04076894 -0.20068075 0.014291977 0.06525302 -0.03709666
-0.39472908 -0.15962543 0.0709594 -0.2827358 -0.0015915837 -0.056283284 -0.07481297 0.09732524
0.028018743 -0.04350316 -0.12041107 0.05990783 -0.14093891 0.17525755 -0.1321964 -0.19387232
-0.059968207 -0.051469557 -0.10049493 -0.014441145 -0.18052596 -0.09715878 0.13019195 0.11299061
0.04619215 -0.05745982 -0.09578534 -0.116361074 -0.016457062 -0.21228525 -0.14945966 -0.13066179
0.055104617 -0.064719506 -0.17593844 -0.124354824 0.0987642 -0.21722199 -0.057172336 -0.11754987
-0.060517475 -0.01657037 0.08216156 0.009853543 -0.10083009 -0.14804493 0.02293525 -0.068876274
-0.046314973 0.019445634 -0.022631843 -0.09630929 -0.1483758 0.09498486 -0.024970798 0.18067518
0.10722705 0.024680538 -0.018056026 0.005721156 -0.012090763 -0.21495147 -0.07231261 -0.09566361

net.0.bias f4 [128]
00000000: d069 dfbd 2aa2 93bd 4a78 f8bd 366f acbd
00000010: f8fe 0c3e b5a2 bdbb 9d80 03bd 5bb9 a5bd
00000020: 5fad 4a3e b5e7 af3c ad2f 17bd 0f73 05bd
00000030: 9ebd 53bd ea92 debd ff46 f3bc 71c3 59bd
00000040: 77df 13be 1689 f8bd 0cbb 4dbd 6e92 69bd
00000050: 2919 8fbd 708a 1ebe 4bae 07be f3b5 173e
00000060: 7839 533c 78b6 4dbd bf95 94bc 06ec 46be
00000070: b97e 9cbd 425d 4ebd cceb bdbc 3cc4 3ebd
00000080: e408 9bbd dc18 03be c168 dfbc bc4d b5bd
00000090: aaa3 bbbd ea1a 7f3d 7e54 e1bc 4053 a0bc
000000a0: 9cba fe3d 6737 aabc afaf 203e 3603 17bd
000000b0: 76cf 10bd da24 4ebd 21c6 07be a1cd 70bd
000000c0: cdd4 253e 8525 cf39 eb22 723d c04d 443d
000000d0: 0523 183c 8b39 13bd 7cad 3dbb 5113 683d
000000e0: d58c c8bd b7ed c8bd b444 433e e494 a1bd
000000f0: 3b19 7dbd f346 f6bc c738 f4bc 5e34 43be
00000100: b1cd 06be 701e 7fbd 9d4f 41bd a742 dabd
00000110: 32c2 d2bd ec3b 2cbe 63a8 4dbd 373a c8bd
00000120: 12d5 51bd 4c70 d4bd 58b1 02be 8dc1 52bc
00000130: c685 0cbc 4da0 5abd 346b 9cbd c382 acbd
00000140: 7d1b 70bd 9803 dcbc 3c47 b3bd 280b 1ebe
00000150: b03c 5bbd 61d8 adbd ce82 61bd 3626 cfbd
00000160: 7aba 9dbd 1bbe 3dbd 7074 d6bd 5c88 4fbd
00000170: 66a9 afbd 2ad3 44bd a607 05bd 0479 8abd
00000180: de57 4fbd a78e d4bd 243f 533d 94c1 e9bd
00000190: a96e 28be 41eb 2fbd a86a 243d aa07 19bd
000001a0: 78e3 cfbd 7127 63bd 07f8 9fbc 9d9a ed3d
000001b0: b4ec eebd b2d1 e43d b9a2 e3bb b4fd 1ebd
000001c0: 3c01 66bd 722a 30bd ca19 e6bc 9b1c a5bd
000001d0: 7be8 18bd f640 27bd 8ace f5bd b5c2 2abd
000001e0: caf2 83bd ab4a 4c3e f9d8 2dbd 69a4 fbbd
000001f0: 0a8a dfbd e569 b4bc df80 6ebd e39b abbd
-0.10908854 -0.07208665 -0.12132318 -0.08419649 0.13769138 -0.0057872185 -0.032105077 -0.080919944
0.19792698 0.021472791 -0.0369107 -0.03258043 -0.051694505 -0.108678654 -0.02969694 -0.053164903
-0.14440714 -0.12135522 -0.05022721 -0.05702441 -0.06987221 -0.15482497 -0.13250081 0.14815502
0.01289212 -0.050222844 -0.01813781 -0.19425973 -0.07641358 -0.050381906 -0.023183726 -0.046573862
-0.07570055 -0.12802452 -0.02727163 -0.08852717 -0.09162076 0.062281527 -0.02750611 -0.019570947
0.12437937 -0.020778371 0.15692018 -0.036868297 -0.0353541 -0.050328113 -0.13259174 -0.058789853
0.16194458 0.0003951007 0.05911533 0.04792571 0.009285693 -0.03594355 -0.0028942516 0.056659047
-0.097924866 -0.098109655 0.19069177 -0.07889727 -0.06179164 -0.030063128 -0.02981223 -0.19062945
-0.13164403 -0.062284887 -0.047195066 -0.10657244 -0.10290946 -0.16819733 -0.050209414 -0.097767286
-0.05122859 -0.103729814 -0.12762964 -0.012863529 -0.008576816 -0.05337553 -0.07637635 -0.08423378
-0.058619965 -0.026857182 -0.08753821 -0.15433943 -0.053524673 -0.084885366 -0.055056386 -0.1011471
-0.07701583 -0.046323877 -0.104714274 -0.05066715 -0.08577232 -0.048052944 -0.032477997 -0.06761363
-0.050620906 -0.10378771 0.051573887 -0.11413875 -0.16448463 -0.042948965 0.040140778 -0.037360825
-0.10150808 -0.055457536 -0.019527448 0.11601756 -0.11666241 0.11172809 -0.0069468883 -0.03881617
-0.05615352 -0.04300923 -0.028088469 -0.08062097 -0.037331086 -0.040833436 -0.12002285 -0.041689593
-0.06442793 0.19950359 -0.04244325 -0.12287218 -0.10915001 -0.02202315 -0.05822837 -0.083793424

net.2.weight f4 [64, 128]
00000000: a94e a13d c385 ff3d e34a f6bc 3ab9 043e
00000010: 29fd da3e 0359 5b3b 4d2f 1c3e 3218 7b3e
00000020: 64ff 863e 1d20 b93b 4ee7 823e 3da6 073e
00000030: 9334 133e 11b5 5d3e dd03 98bd 10b7 2d3e
00000040: 3bc0 933e 794a 7abd 0bd6 f63d 508b 8b3e
00000050: 61c5 d73d 154c 2a3e 6ee0 643e 4b6f 943c
00000060: 2d38 f13b e84e b33e cd18 df3e 9caf 863e
00000070: 3d7f 913e c96f 3c3e 0d75 9b3e afad 86be
00000080: dadc ad3e 0ee1 323e 34e5 473e 32cb 38be
00000090: ff74 973e 4a92 2f3e 5e55 22be 557f 033e
000000a0: 07c6 703d 4ce9 e13e 0c51 b63d 7a93 8a3e
000000b0: 1b42 363e d022 4abe adac 98bd 23e5 e3bd
000000c0: 5a5e d03c 454c d33e e871 c5bc 6574 dd3d
000000d0: cb99 6bbd afbf 143f e0ba 973d 10b6 d13e
000000e0: 1943 f7bc 70c2 013e 5491 133e fc3c 20bd
000000f0: e975 2a3e 8e53 8f3e 56f4 973e d362 b63e
00000100: 2fab b63e 3a00 7d3e 37e6 b5bd 183a 663e
00000110: 7c07 103e e482 653e 6801 06be 0b31 4f3e
00000120: ab24 273d 1e37 033e d811 b8bd 3291 e83e
00000130: b48d 1c3e 62cf 31be 04e3 b33d 4f46 bf3e
00000140: 03af 46bd 9e6b b53e cf3c 453e 0b7a 8f3e
00000150: aee0 8a3d ceeb d23d 951c 2e3e d5e6 393e
00000160: 96a4 edbd 7e56 dfbd c3a8 bb3d b258 9c3e
00000170: d3d1 643e e73a c03e 56fd ec3d dff0 453e
00000180: 8504 b6bd dc98 903d 08f7 f8bd 2549 40be
00000190: bdd2 103e fe98 1b3e a883 0f3e 7bb3 c1bd
000001a0: 3a5b f93d 4ebe 383e 4106 ed3d 4265 3c3e
000001b0: a87e 4abd 118a c33d d171 433b 58c3 9e3e
000001c0: d064 30be 5d19 c13c 08b2 db3e 107a 07be
000001d0: 8b41 7b3e 902e 163e a5b2 863e 9e27 1e3e
000001e0: 901a bb3d 8c81 013e c464 bf3d d105 bb3e
000001f0: bfae 4c3e cb6f d2bd 99bc 2c3e 297b c0bc
00000200: 8585 d33e f682 bd3e dd97 c43e 6c7f 883e
00000210: a8df 183d 22b8 93be e77f b03e 3644 f13e
00000220: b60e 363e 135d 9c3c 3f2a 9b3e 927c 403e
00000230: b9fe 603e 28e5 c03e 72f0 bebe 05eb af3e
00000240: 0194 093f 2b4d d53e 9997 983e 185d 973e
00000250: 0064 c33e 87f3 ec3e d5a0 d63e 90fc 1a3e
00000260: 8849 523e 2503 e53e adcd a83e bfab 253f
00000270: 2f37 233f b033 d93e 127c c43e 33e4 a5be
00000280: 5b95 af3e 0c33 a93e 86ca 6f3e ddee 9dbe
00000290: 6c6c c03e 53c2 f93d 3cc1 87be 137c c6bd
000002a0: 4aa3 5b3c 363f d53e cfec 1e3e 8f18 163f
000002b0: 2351 bd3e d263 aabe b99d 813d 102b 23be
000002c0: 64ea 093e bc7f 743e 6486 953c 4ef6 503e
000002d0: 4eb6 7d3e 231d 5f3e 557d 673e cc75 0c3e
000002e0: ae48 a3be de1b 6f3e cdae 183e e3af 473c
000002f0: de38 893e 4fe1 913e 6dd2 ad3e 40dc 143f
00000300: d6ad 103f 26ef e23e 9393 5ebe 8440 d53e
00000310: 8466 663e f35a bc3e e933 c0be 90c0 aa3e
00000320: 554c 3fbd ce97 a23e 9e9f 1dbf f050 8e3e
00000330: db7d 923e 8455 76be 89fd 743e 4010 f33e
00000340: 01d3 b7be 2b99 ab3e e579 753e 9ac8 a43e
00000350: 30bb dc3e 2684 bd3e 86a2 b53e 1405 d03e
00000360: a5f6 bbbe b7b9 4abe a736 d43e e8ef 023f
00000370: 70b5 f03e e4c7 bb3e fc1e 8bbd e253 b83e
00000380: 1d23 a5be f9fa ae3e 437e 503e 932c b83e
00000390: b808 f73e 1151 af3e 4187 91bd 01ae a2be
000003a0: ce7a 9c3e 63b5 813e 2dba 4d3e 7bbe 953d
000003b0: 3808 a63e 6fe9 f33c 1333 5c3e 9d27 b83e
000003c0: c8d3 78be beb2 a1be 6352 3f3e fe5e a2be
000003d0: e880 d23e adb9 b43e 3737 2b3f 8653 b83e
000003e0: 9bc7 853e 185d 483e 7457 603e 1c78 eb3e
000003f0: 62ad ba3e 21e5 94be 2a58 ce3e aefb fe3d
0.07876331 0.12476685 -0.030065006 0.12961283 0.4277127 0.0033469803 0.15252419 0.24520949
0.26366723 0.00564958 0.25567096 0.13247009 0.14375524 0.21651103 -0.07422612 0.16964364
0.28857598 -0.06110618 0.12052544 0.27254725 0.10535694 0.16630585 0.22351238 0.018119475
0.007361433 0.35021138 0.4357361 0.26305854 0.28417388 0.18402018 0.3036274 -0.26304385
0.3395756 0.17468664 0.19521028 -0.18046263 0.29581448 0.17145649 -0.15852877 0.12841542
0.058782604 0.44123304 0.08902177 0.2706564 0.17798655 -0.19739842 -0.0745481 -0.11127689
0.025435615 0.41269127 -0.024102166 0.10813216 -0.057519715 0.58104986 0.074086905 0.40959215
-0.030183362 0.12671828 0.14410907 -0.03912066 0.16646542 0.27993435 0.296786 0.35622272
0.35677478 0.24707118 -0.088818006 0.22483099 0.14065355 0.22413212 -0.13086474 0.20233552
0.040806454 0.12813994 -0.089877784 0.45423275 0.1528843 -0.17364267 0.08783534 0.3735833
-0.048506748 0.35433668 0.19261478 0.280228 0.067811355 0.102988824 0.1700309 0.18154462
-0.11603658 -0.10905169 0.09163048 0.3053642 0.22345667 0.3754494 0.115717575 0.19330166
-0.08887581 0.070604056 -0.121564925 -0.18777902 0.1414289 0.1519508 0.14015067 -0.09458061
0.12175603 0.18041345 0.115734585 0.18398002 -0.049437195 0.095478185 0.0029822479 0.3100841
-0.17225957 0.023571664 0.42909265 -0.13230157 0.24536721 0.146662 0.2630817 0.154448
0.09135926 0.12647074 0.093453914 0.36527875 0.19988535 -0.10275229 0.1686882 -0.023496227
0.41312805 0.37013978 0.38397112 0.26659715 0.03732267 -0.2885142 0.34472582 0.47122353
0.1777905 0.01908735 0.3030567 0.1879752 0.21972169 0.37674832 -0.3729282 0.34358993
0.5374146 0.41660437 0.2980316 0.29563212 0.3816223 0.46279547 0.4191958 0.15135407
0.20535862 0.44728962 0.32969418 0.6471519 0.6375608 0.42422247 0.38375908 -0.32400665
0.34293637 0.33046758 0.234171 -0.308463 0.3758272 0.121952675 -0.26514614 -0.09691634
0.01340563 0.4164979 0.15520023 0.58631223 0.36975965 -0.33279282 0.06328911 -0.15934396
0.13468319 0.23876852 0.018252559 0.20406458 0.24776575 0.21788459 0.22606404 0.13716811
-0.31891388 0.23350474 0.14910431 0.012187931 0.268012 0.2849221 0.33949605 0.58148575
0.5651525 0.4432308 -0.21735983 0.41650784 0.22500044 0.3678814 -0.37539604 0.3335004
-0.046703655 0.31756443 -0.6157168 0.27796125 0.28611645 -0.24056059 0.23924841 0.47473335
-0.3590317 0.33515295 0.2397228 0.32184297 0.43111563 0.37014884 0.35475558 0.40628874
-0.36711612 -0.19797407 0.41447946 0.5114732 0.47013426 0.36675942 -0.06793019 0.36001498
-0.32253352 0.34175852 0.20360665 0.35971507 0.4824884 0.34241536 -0.07105876 -0.3177338
0.30562443 0.253337 0.20090552 0.07311722 0.32428145 0.029774396 0.21503858 0.35967723
-0.24299538 -0.31581682 0.18683772 -0.31713098 0.41113973 0.3529791 0.66881126 0.36001223
0.2612885 0.19566762 0.2190836 0.45990074 0.36460406 -0.2908106 0.4030164 0.12450348

net.2.bias f4 [64]
00000000: 489f 043e c677 7f3e 6776 843e d956 48bd
00000010: cbeb 7b3d da88 56bc 66af 923e 034c 913d
00000020: 0c11 09bd 7318 243e 4765 e23c 68fd f43d
00000030: 0931 bf3d adae 5c3e 4704 233e 2402 083e
00000040: 906c 243e 8735 09bc eadb 073e 9e79 0cbe
00000050: 56e4 643d adfd 1b3e 15c3 973e cf57 283e
00000060: 914f 1c3e b2be 973e 51ba 603d 6c13 893e
00000070: 2c03 f53b 6b22 a4bd d891 f6bd 0625 353e
00000080: e99a 0bbe 0aca a33b dbfc 3a3e 75b5 4f3e
00000090: 0b43 ec3c 6759 3c3e e4d9 263e 37c9 543d
000000a0: b6bf 76bd 3dc9 123e 8f18 aabe b63c 623e
000000b0: f76e d63d 3137 693e 8f7c b33d 14f0 3ebb
000000c0: 17e1 183d a7c7 823e 72d4 1e3e 2ee5 6c3d
000000d0: b7ca a9bc 5fa3 2e3e 94e6 f53d 7f13 2ebd
000000e0: 843e 873e 27b2 883e 8954 f53d a70d 073e
000000f0: afa7 bb3d def2 163e e0af 0dbd d14b 9dbd
0.12951386 0.24948034 0.25871584 -0.04891095 0.061504167 -0.013094151 0.28649443 0.07094576
-0.033463523 0.16024952 0.027636183 0.11962396 0.093355246 0.21551009 0.159196 0.13282067
0.16057038 -0.008374578 0.13267484 -0.13718268 0.05588182 0.15233488 0.29641023 0.16439746
0.15264727 0.29637676 0.054865185 0.2677263 0.0074771848 -0.08014377 -0.12039536 0.17689905
-0.13633312 0.00499845 0.18260519 0.20284064 0.028840562 0.1839348 0.16294056 0.051949706
-0.060241424 0.14334579 -0.33221862 0.22093472 0.104703836 0.2277496 0.08763992 -0.0029134797
0.037324037 0.25542948 0.15510729 0.05783575 -0.020726545 0.17054509 0.1200687 -0.04249906
0.26414883 0.2669842 0.119790144 0.13188802 0.091628425 0.14741084 -0.034591556 -0.076804765

net.4.weight f4 [3, 64]
00000000: 3b49 db3e 690d cc3e ddbd b13e c0e7 373e
00000010: 9e54 a4bd 494a 023f 2d1d 853e dc6c 813e
00000020: 5fb2 8fbd f49f a83e ad7a a3be be6b 933e
00000030: ddbd 15be 14b8 e83e c5d4 f23e 418b a6be
00000040: fd78 7c3e 4191 0fbe bd63 e3be 47c5 933e
00000050: d894 14be 5857 243e bb95 a13e b4e6 3abf
00000060: e1a9 183e 3ac7 e23e 8900 c83e 80d9 e13e
00000070: b52d ee3e d3d1 b7be f4ad 0fbd b779 1c3e
00000080: 7787 8b3d b4a5 2c3e a824 353e fe2b c03e
00000090: 71b6 06bd d8bc f23e 51d5 f13e 9903 b8be
000000a0: 7107 8ebe d5b2 10bf b722 053f 2a00 c43e
000000b0: 23ee 15bf 4aeb 3e3d 0447 08bf 3b61 2cbd
000000c0: e4dc 173c b681 9d3e 34db cb3e e0ea ce3e
000000d0: 3571 b63e 3d18 b23e c1f2 6f3e 7573 30be
000000e0: 078e 603e d338 c53e 3ae5 2dbf 4559 47bf
000000f0: 6c98 16be a0e0 8d3e 8968 bf3e 683d 9b3e
00000100: 69eb cf3c e9ce d93e d034 fb3e 4718 f23e
00000110: 9993 dfbe b251 f13e 6ac5 523e 18e1 95bd
00000120: 2651 9dbe 759c ee3e 4c9d cdbe cf52 f23e
00000130: 702d a9be 0ac5 f83e 8e94 ba3e 5851 353d
00000140: 57e8 f83e b7bf c1be a533 ebbe 222a d13d
00000150: 18ad 46bd e7a4 eb3e 28de d23e c62c 1cbf
00000160: 9e56 d93e c5b5 f83e 6ae5 e9bd e1be 8e3e
00000170: 1962 7dbe dd18 03bf 7b63 1f3f 6c9c a8ba
00000180: 6d26 363b 6cab adbe e4f9 ff3e 04a9 5d3e
00000190: 2526 94be 69b6 b03e a5e9 cc3e a776 323e
000001a0: f50d c53e 21de ebbe f7e6 ea3e 3d20 ba3e
000001b0: da7c 1fbf a584 47be 0d2d b8be 09bb 6b3e
000001c0: cb19 923e 00fa f63e d554 0d3e a35f dc3e
000001d0: 0f5c 0a3f 5c3c e53e c076 f63e f40c c6be
000001e0: 119c fe3e 1986 f93e 3dbb 11bf edb4 f6be
000001f0: 525a cdbe 47a1 db3e d274 b83e 0a08 96be
00000200: cdad b13e dabd d73e 5d6e bb3e 13ff b9bd
00000210: 9573 e1be d93e c83e 9c2c c73e 04d9 8b3e
00000220: 84ff b4be cd9e b73e 50c7 d4be 24ac 31bd
00000230: 4db5 a9be cf29 a23e 2702 50bd 46c8 153f
00000240: b8a9 d03e e04c 9bbe f21b 05bf 2816 003e
00000250: 144e 793e 387b d93e 7bbf bf3e eaa1 1bbf
00000260: 25f3 2dbd 88d3 c63e 43d9 843e 6d16 c13e
00000270: d9b9 11be 7c2a 3c3d 45aa 883d e309 b43e
00000280: f2de a73a beb4 933e acfc cf3e 50a9 d73e
00000290: 95b2 5ebe 3081 c9bc 6877 b43e 0403 78be
000002a0: ea69 00bf d02f 81be 6854 03ba 5d81 b93e
000002b0: 1dcf d6be 045d a13e cc0c 60bd af60 dabe
000002c0: 8d7e f1be b2c7 da3e fa68 993e 3b0e fdbe
000002d0: 6d42 d03e ce94 a23e cd48 af3e 7b1f b53e
000002e0: a321 d53e 99e8 c03e 3c27 e8be 68c3 e1be
000002f0: 4bb3 c2be 19e6 a83e e194 85bd 81b3 a6be
0.42829308 0.3985398 0.34715167 0.179595 -0.08023952 0.508946 0.25998822 0.25278366
-0.070164435 0.32934535 -0.31929532 0.28793138 -0.14623208 0.4545294 0.47427955 -0.32528117
0.24655528 -0.14020254 -0.44412032 0.28861448 -0.14509904 0.16048944 0.31559548 -0.73008275
0.14908554 0.44292623 0.39062908 0.44111252 0.46519247 -0.3590227 -0.035078004 0.15280806
0.06812947 0.16860086 0.17689764 0.37533563 -0.032888833 0.474097 0.4723306 -0.35940245
-0.27740052 -0.56522876 0.52006096 0.38281375 -0.5856649 0.046611108 -0.5323336 -0.042084914
0.009268973 0.30763024 0.39815676 0.4041357 0.35633245 0.34784117 0.23432447 -0.17231543
0.21929179 0.38519916 -0.67927897 -0.7787059 -0.14706582 0.27710438 0.37384441 0.30320287
0.025380807 0.42540672 0.4906373 0.47284147 -0.43667296 0.4713264 0.2058312 -0.07318324
-0.30725974 0.46603742 -0.4015907 0.47328803 -0.3304248 0.4858783 0.36441463 0.04426703
0.4861476 -0.3784158 -0.4593784 0.10213114 -0.04850492 0.46024248 0.41185117 -0.6100582
0.42448896 0.4857618 -0.114207104 0.27880004 -0.24744453 -0.51209813 0.6226117 -0.0012864
0.00277939 -0.33919847 0.4999534 0.21646506 -0.28935352 0.34514168 0.40022007 0.17428075
0.3848721 -0.46067908 0.45879337 0.3635272 -0.62299883 -0.19484194 -0.3597187 0.23020567
0.28535303 0.4823761 0.13801892 0.43041715 0.5404672 0.44772613 0.48137474 -0.38681757
0.49728444 0.4873512 -0.5692633 -0.4818491 -0.4010797 0.42896482 0.36026627 -0.29303008
0.34702912 0.42137033 0.36607638 -0.09081855 -0.44033495 0.3911045 0.38901222 0.27314007
-0.35351193 0.35863343 -0.41558313 -0.043377057 -0.33146134 0.31672522 -0.050783303 0.5850872
0.40754485 -0.30332088 -0.51995766 0.12508452 0.2434619 0.4247682 0.37450776 -0.60793936
-0.04246821 0.3883326 0.25947008 0.37712422 -0.14231052 0.045938954 0.06673101 0.35163793
0.0012807532 0.28848833 0.4062246 0.42121363 -0.21747811 -0.024597734 0.3524735 -0.242199
-0.5016161 -0.2523179 -0.0005009831 0.3623151 -0.4195489 0.31516278 -0.054699704 -0.4265189
-0.47166863 0.4273048 0.29962903 -0.4942492 0.4067568 0.31754154 0.3423523 0.3537558
0.41627225 0.37677458 -0.45342433 -0.44094396 -0.38027415 0.3298805 -0.06522537 -0.32558826

net.4.bias f4 [3]
00000000: bc13 2c3e beea 0b3e 327c ce3d
0.16804403 0.13663766 0.10082282
