Deep Q-Learning/results/50_dqn_model.pt (torch, 410157 bytes, 6 tensors)

net.0.weight f4 [128, 728]
000000 42 04 1d be b3 42 f7 3c 3e 0b 04 3d da d6 3f be
       -0.15333655 0.030183172 0.032237284 -0.18734303
000010 8b 6a 5c bc 7e 55 f1 3b d8 dc 2f 3d 0c 7a f4 bd
       -0.013453136 0.007364928 0.042935222 -0.11937341
000020 bd 35 96 bd a5 cd a0 bd 72 03 a5 bd ea be 31 bd
       -0.073344685 -0.078517236 -0.08057298 -0.04339496
000030 5b ed b6 3c ee 94 a0 3d 50 d7 1b bd 65 d0 a0 bd
       0.022329977 0.07840906 -0.038047135 -0.07852248
000040 3d bb 38 3d b2 a5 8a bc 6b 49 44 3e f4 84 85 38
       0.04510044 -0.016924713 0.19168632 6.366699e-05
000050 ef 0f 49 bd 49 bc be bd 6f 09 9d bd ba 5d 6f 3d
       -0.04908746 -0.09313256 -0.07667815 0.058438994
000060 b3 7f c8 bd 36 2c 94 bb cf 8e e9 3d 27 a5 3b be
       -0.09789982 -0.004521872 0.11404192 -0.1832472
000070 ea 8c 12 3c 99 40 c9 3d 1f c9 cb 3d f3 08 6a 3c
       0.008944729 0.09826774 0.0995047 0.01428436
000080 a3 8a c9 3d 8a b3 08 bd 69 6a 16 3d 86 52 27 bc
       0.09840896 -0.033374347 0.036722574 -0.010212546
000090 36 d9 42 3b 97 13 10 3b fc fa c7 bd d8 aa c8 bc
       0.0029731519 0.0021984333 -0.09764668 -0.024495527
0000a0 5f 63 24 3c e1 b0 fb bd 74 cb 90 bd 45 d8 30 3e
       0.010033458 -0.12289596 -0.070700556 0.1727
0000b0 fb 3a 31 3d 7f a9 29 3d c5 d8 03 be a6 64 27 bd
       0.04326914 0.04142141 -0.1287566 -0.04086747
0000c0 df 3a 97 3c ba 7d ab 3c 44 e2 dd bd 69 5d 8d ba
       0.01846069 0.020933975 -0.10834172 -0.0010785285
0000d0 7b 0e 6a 3d 09 76 22 bd 91 5a a2 b8 ee ab 7e bd
       0.057142716 -0.03966335 -7.741631e-05 -0.062175684
0000e0 42 39 53 3c a1 d8 4a bd 37 ef 07 bd 4e 03 94 3d
       0.012892069 -0.049523 -0.033187117 0.07227193
0000f0 e1 14 ee 3c b0 45 99 bd 42 ed 12 bc b3 e6 b9 bd
       0.02906269 -0.07483995 -0.0089676995 -0.090772055
000100 5d 29 37 be 6a 16 15 3d 8b 31 09 3d 4d 23 b5 bc
       -0.17886873 0.03639833 0.033494513 -0.02211156
000110 8a 83 2f bd d5 a5 b4 bd ae 67 df 3c ab 65 00 3d
       -0.042850055 -0.088206924 0.027271118 0.031346958
000120 eb 92 86 bd 13 47 92 bd 64 2a bb bd 4d 81 b2 bd
       -0.06570991 -0.071424626 -0.09138945 -0.087160684
000130 3d d9 19 be 93 07 96 3c b8 54 fe 3c 2e 3d d8 bd
       -0.15024276 0.018314159 0.031046256 -0.10558544
000140 77 70 13 bd 52 35 d0 3a f9 11 d3 bc 00 3b f7 bc
       -0.035995927 0.0015885031 -0.025765406 -0.0301795
000150 00 55 b6 3d 40 35 04 be df c1 b2 bd 96 9e c2 bd
       0.08902931 -0.12910938 -0.08728384 -0.09502904
000160 40 f1 18 bd 13 d3 b8 3d 59 84 12 bd 0d f0 15 bd
       -0.03733945 0.09024634 -0.035770748 -0.036605883
000170 17 4c 57 3d 4d eb a2 3d 62 a7 41 3e 36 85 ac 3c
       0.0525628 0.07955036 0.18911508 0.021059614
000180 b0 1e 91 3d 49 2f 87 3c 8f 05 e1 3d 08 df e8 bd
       0.07085931 0.01650204 0.10987388 -0.11370665
000190 cb 98 60 bc 18 71 3b 3d 3f a2 f9 bd 8c 26 07 be
       -0.013708304 0.04576215 -0.12189149 -0.13198298
0001a0 f5 fb 94 3d 57 83 8c bd de df 90 bb 55 1c 51 3d
       0.072746195 -0.068609886 -0.0044212183 0.05105241
0001b0 9a 11 2a bd c5 89 32 bd 0e a6 b3 bd 92 00 e8 bc
       -0.041520692 -0.04358842 -0.08771907 -0.028320584
0001c0 e2 4e 67 bd 50 ba 1b be 00 61 4b be c4 d7 32 bd
       -0.056471713 -0.15207791 -0.19861221 -0.0436628
0001d0 22 b7 56 be 6e df 33 bd 20 5c 9c bd 1d 63 d1 bd
       -0.20968297 -0.04391425 -0.07634759 -0.102239825
0001e0 50 aa 48 3d b6 af 68 3d a6 00 c7 3d 36 b7 bf 3c
       0.048990548 0.056808196 0.097169206 0.023402791
0001f0 ac 93 bd bc ed 59 d9 bc 90 cb e1 bc 07 d9 ba bb
       -0.023141704 -0.026532138 -0.027562886 -0.005702141
000200 f7 f9 dc bd df c4 d9 3b 26 46 ab b8 e0 84 10 3d
       -0.107898645 0.0066457833 -8.1669816e-05 0.03528297
000210 95 c7 8f 3d 11 5c 05 bd f5 0f cd bc 1a 4c b4 bd
       0.07020489 -0.032558504 -0.025032023 -0.08803578
000220 7a ff bd 3b d9 cf c9 3d c2 e1 1c 3b 2e 62 1e be
       0.0057982774 0.09854097 0.0023938273 -0.1546714
000230 9f f0 9d 3d e3 cf 14 bd fa 69 80 bc a4 e1 0e 3e
       0.077119105 -0.03633107 -0.015675534 0.13953263
000240 26 0e c4 3c 2f f1 8b 3d 1e 4d c0 bc ed 1d be 3d
       0.023932528 0.068331115 -0.023474272 0.09283052
000250 0b 61 0d 3d 81 16 1d be 86 a4 22 bd 32 ca bc 3d
       0.034516376 -0.15340616 -0.039707683 0.09218253
000260 61 01 0b 3d 1d eb 6a bd 3e 33 ea b9 94 2f 65 3c
       0.033936862 -0.057353128 -0.00044670136 0.013988394
000270 d5 34 ef 3d b5 d8 09 bd 6c a1 1b 3d 12 8f a0 bd
       0.11679999 -0.033653934 0.03799574 -0.078397885
000280 13 d9 bf bd 85 f3 79 bd 26 3e 14 3d 06 3e ee bd
       -0.093675755 -0.061023254 0.036192082 -0.11632924
000290 73 14 9f 3b 73 74 d2 bd 19 6b c1 bd 0b 70 c6 3c
       0.0048547327 -0.10276117 -0.094442554 0.024223348
0002a0 c9 d1 e2 3c 20 cf 86 bc ff 11 5f 3d 7b ba a4 3d
       0.027687924 -0.016456187 0.05446052 0.08043381
0002b0 fe a6 a7 3d 57 01 3b bd 92 3f 7b bd 3a 52 4a 3c
       0.08186148 -0.045655575 -0.061339922 0.012348706
0002c0 bc 81 96 3d 1f df 78 bc e6 e4 e3 bd 69 5a 14 bd
       0.073489636 -0.015189915 -0.11127643 -0.036219034
0002d0 b9 a2 3c bd de 0d 3e 3e 37 f0 59 3d 5c 43 01 3d
       -0.046053622 0.18559977 0.053207602 0.03155838
0002e0 62 8b 01 be 68 45 02 bc 78 ca 14 bd c7 c3 b7 3d
       -0.12650827 -0.007951118 -0.0363259 0.089728884
0002f0 3c 37 54 3c d3 cc ad 3d af a7 ff 3c 37 3a 8f 3d
       0.012952622 0.08486333 0.031207887 0.069935255
000300 7d d7 79 bd 44 b9 98 bd 6a c2 c7 bd b5 31 b0 bd
       -0.06099652 -0.074572116 -0.097538784 -0.08603231
000310 08 79 06 bd 7b 29 44 bd 8b 45 01 3c 7f 8b 58 3c
       -0.03283027 -0.04789112 0.0078901155 0.013216852
000320 4f e9 a0 bd c7 ea 94 3d c1 98 79 3d 97 39 e9 3c
       -0.07857 0.07271343 0.060936693 0.028469844
000330 b8 00 b1 bd 66 07 04 bd 8d 88 34 3d 10 ec a0 bd
       -0.08642715 -0.03223362 0.044075537 -0.07857525
000340 d5 08 bc bd 9c 1b 09 bc 3c 7d fb bd 37 a1 3d 3d
       -0.09181372 -0.008368399 -0.12279746 0.046296325
000350 03 e7 f3 bd de e4 94 3d c6 f5 5a bd 2e a2 5b 3c
       -0.11909296 0.072702155 -0.053457044 0.013405366
000360 b8 06 12 bd d5 bb e6 3c f4 d7 ff bc 92 4a 07 3e
       -0.03565094 0.028165737 -0.031230904 0.1321204
000370 c5 75 a6 3d b6 7e 01 be 5d eb e6 bd 79 93 44 3a
       0.081279315 -0.12645993 -0.11275361 0.0007498782
000380 35 2f 18 be 8b b2 95 bd 65 df 5e 3b 18 c2 90 bd
       -0.14861758 -0.07309445 0.0034007665 -0.070682704
000390 d3 3b 78 3d 1d 93 b8 3c 40 95 d9 3c 1e 93 6f bd
       0.060603928 0.022531087 0.026560426 -0.05848991
0003a0 7f 20 35 bd 71 f2 3e bd 70 41 b7 bc 33 84 86 bc
       -0.044220444 -0.04661793 -0.02237007 -0.01642046
0003b0 98 15 a4 bc 96 ea 16 be d9 a3 26 bc 35 da 8b bc
       -0.020029828 -0.14737925 -0.0101709 -0.017071823
0003c0 03 bb 3b be 67 6d aa bd 8e d6 e8 bc 55 25 ff bd
       -0.18333058 -0.08321648 -0.02842262 -0.124582924
0003d0 50 49 03 bd 75 d5 c8 bd cb f3 d2 bd 98 25 c7 3d
       -0.032052338 -0.09806339 -0.10300406 0.09723967
0003e0 3d ab 65 3c 3f b8 f2 bc 84 0b 14 be d0 00 64 bc
       0.014017877 -0.029628871 -0.14457518 -0.013916209
0003f0 51 92 85 bd fc df d2 3c a1 13 8e bc 21 cb 85 3d
       -0.06522048 0.02574157 -0.017343344 0.065328844

net.0.bias f4 [128]
000000 23 5a 12 3e 64 db c9 3d 03 c0 d1 3d 23 52 db 3d
       0.14292197 0.098562986 0.102417015 0.10709026
000010 21 2e 99 bd c1 9f 98 bc 45 56 03 bd b7 54 8c bd
       -0.074795015 -0.018630864 -0.032064695 -0.068520956
000020 06 bb 3b bd 47 e6 bd bd 6e 50 18 3e ef 9f 11 bd
       -0.045832656 -0.092724375 0.14874431 -0.035552915
000030 ad 09 a5 3d b3 36 3e 3d 2d d8 17 3e 8b c8 11 bd
       0.08058486 0.046438884 0.14828558 -0.035591643
000040 1b fe 36 3d e0 67 2b bd ec f1 d1 bb 60 05 0c 3b
       0.044675928 -0.04184711 -0.006407013 0.0021365508
000050 5f 12 2a 3e c4 a4 a8 3d eb 47 dd 3d b6 35 a4 bc
       0.1660857 0.082345515 0.10804733 -0.020045143
000060 40 65 8b 3d b4 08 91 3c cc b6 4b 3d 94 c8 dc 3c
       0.06806421 0.017704345 0.049734876 0.026951112
000070 45 5a 5e bc 54 7d 09 3e 7b 7e cd bc fe e3 8a bd
       -0.013571327 0.13426715 -0.025084725 -0.06781767
000080 02 48 46 3d 08 56 bd 3d ed ec cf 3d 0e 7e 00 bb
       0.048408516 0.09244925 0.10152612 -0.0019606384
000090 56 20 aa bd 44 b8 13 bd 99 84 32 bd 4a e4 e7 3d
       -0.08306949 -0.0360644 -0.043583486 0.113228396
0000a0 bd 0e c8 3d 2a 49 9b 3d 5b 0e 2d bc 98 b9 7e bd
       0.09768436 0.07582314 -0.010562505 -0.062188715
0000b0 9d 52 b3 3c c4 d6 2e 3e 37 cf 71 3b e5 fe 9e bd
       0.021889979 0.17074114 0.0036897191 -0.07763461
0000c0 c7 56 a4 bd 78 84 5f bd 86 5d 86 3c df e2 72 bd
       -0.08024364 -0.05456969 0.016402017 -0.059298392
0000d0 0d ad 31 bd e7 11 1e 3e 4f 45 3c bd 3b 1a b3 3d
       -0.043377925 0.15436517 -0.045964535 0.087452374
0000e0 0b 51 56 3d d1 a3 4d bb 97 0d 35 3d 0d 09 3e 3e
       0.052323382 -0.003137816 0.044202413 0.1855814
0000f0 36 cd bf 3d 34 36 9c bd 8b d9 11 3d d6 d0 2c 3d
       0.09365313 -0.07627526 0.035607856 0.04219135
000100 2a 85 9c 3d 0d dc 25 bc 10 3f 36 3e f6 a4 32 3e
       0.076425865 -0.010123265 0.17797494 0.1744574
000110 a3 30 07 bd 1e 2c 2e bc 8a fe 42 3e 66 0f 5c bd
       -0.033005368 -0.010630636 0.19042411 -0.053725623
000120 bc 4f 86 bd 5f c3 bd 3d 50 8b 2f 3e 59 b6 90 3d
       -0.06558177 0.0926578 0.17142987 0.0706603
000130 ae a9 56 bd d9 f5 f7 3d 72 b9 d7 bc 22 f8 95 3d
       -0.052407913 0.121074386 -0.026333544 0.07322718
000140 ce 3b 66 3c af f0 8a 3d 8a d9 8d bd 24 7c 7e 3c
       0.0140523445 0.06784188 -0.06926258 0.015532527
000150 c4 b5 c5 3d 79 24 c2 bd 2d 4e 9c bd 53 d3 56 3c
       0.0965381 -0.09479613 -0.07632098 0.013111907
000160 f8 66 ae bd a9 45 97 3d ce 4c a9 3d eb 7a ae 3c
       -0.085157335 0.073863335 0.082666025 0.021298846
000170 0c b6 cc 3b 37 86 ec bc e8 1e 3a bd 1f d2 06 bd
       0.0062472876 -0.028872592 -0.04543963 -0.03291523
000180 0a 49 97 bd 22 4b a2 3b 9d 40 9f bc a2 28 c3 3d
       -0.07386978 0.004952804 -0.01943999 0.095292345
000190 a8 44 a4 3c 57 6a 4d bd 82 f6 31 3e aa 43 06 3e
       0.02005227 -0.05015024 0.17379192 0.1311175
0001a0 43 b2 11 3e ce 8d 57 3c 8b f8 bb 3d b8 90 b2 bc
       0.14228158 0.0131563675 0.09178265 -0.021797523
0001b0 d6 c0 bf bc ec 77 f0 3d 88 a6 ac bd 49 ae 72 3d
       -0.023407381 0.11741623 -0.08430201 0.059248243
0001c0 fe b3 81 bd fb d1 df 3c 96 3d b2 3c ce cd 3d 3d
       -0.06333159 0.027321806 0.021757882 0.04633885
0001d0 55 8b a7 3d fa 5b 82 bb a8 44 a4 ba d7 bf e1 3d
       0.08180872 -0.0039782496 -0.0012532668 0.11022919
0001e0 06 ad 87 3b 57 09 b2 3d 0d 91 51 3d 06 19 06 bc
       0.004140499 0.08693188 0.05116372 -0.008184677
0001f0 03 13 89 bc eb 72 03 3c e8 22 3b bd f3 8b 36 3e
       -0.016732698 0.008023004 -0.045687586 0.17826824

net.2.weight f4 [64, 128]
000000 c4 ee c4 3d f2 c1 66 3d 66 cc fc 3d e6 6f 53 3d
       0.096158534 0.056337304 0.123436734 0.051620387
000010 f6 3a 94 3d 3f c0 5f 3e ee cd c6 be 70 1a b1 3e
       0.072378084 0.2185068 -0.38828987 0.34590483
000020 c4 fd a9 3e c4 3d 2d 3f 20 c0 65 3c 10 67 51 3e
       0.3320142 0.6767237 0.014022857 0.20449471
000030 2d e1 ef 3d bc a9 27 3e 63 fb 3c 3e e4 f6 d7 3d
       0.11712871 0.16373342 0.18455271 0.105451375
000040 50 08 66 3e f8 d6 82 3e c4 76 bc bc 71 6c 95 3d
       0.22464108 0.25554633 -0.02300585 0.07296074
000050 6c dc 98 3b 56 21 20 3d 40 c4 6f 3e 49 7e 28 3e
       0.004664948 0.03909429 0.23414707 0.16454424
000060 0e 08 25 3e 8c eb 37 3e 19 6b a2 3d d5 18 cd bc
       0.16116354 0.17960948 0.079305835 -0.025036255
000070 b2 a8 66 3e dc aa 01 3d d8 89 b9 3d 2a 61 2a 3e
       0.2252529 0.031657085 0.09059495 0.16638628
000080 8c 05 af bc bf 01 04 3e 1b 4c 21 3e 67 3d fc bd
       -0.02136495 0.12891291 0.15751688 -0.12316399
000090 08 ff 88 3c e0 0c a5 3e 2e 06 19 be 10 80 0f 3e
       0.01672317 0.32236385 -0.14943764 0.14013696
0000a0 05 72 f0 3c 7b d8 24 3d 36 fd 99 3e b8 5e 8c 3e
       0.029351244 0.040245514 0.30075997 0.27416015
0000b0 1e fc ae 3e 21 9e bb 3c e9 4e 22 be 23 62 57 bb
       0.34176725 0.02290255 -0.15850414 -0.003286489
0000c0 58 6c 12 3f 1f 45 fe 3d d2 b5 81 3e ab cb f3 3e
       0.5719657 0.124155276 0.2533403 0.47616324
0000d0 68 06 05 3e 3e db 16 3d 57 0a 75 be 2a 0b 01 3e
       0.12990725 0.03683018 -0.23929726 0.12601915
0000e0 55 1d 69 bb dc b7 44 3e fd 61 29 3e b5 56 1b 3e
       -0.0035570462 0.19210762 0.16541286 0.15169795
0000f0 d9 8a cc 3b b3 98 a9 3e 53 2e 4e be 7d 2d 04 3e
       0.006242138 0.33124313 -0.20134859 0.12907977
000100 b2 b9 09 3e ed 5e 1f bd 05 a8 8c 3d e5 59 ae 3d
       0.13449743 -0.038908888 0.06867985 0.0851324
000110 90 a4 c1 3d 29 a3 d1 3e f9 3b 03 3e 67 22 e2 3e
       0.09455216 0.40944794 0.12815847 0.44166872
000120 7a 4c c3 be 41 f9 0c 3e 0d 6c 47 3d 68 27 0c 3e
       -0.38144284 0.13766958 0.04868703 0.13686907
000130 93 02 b6 3e c7 2b e2 3d e8 ce 94 be 81 e7 35 3e
       0.3554884 0.11043506 -0.29064107 0.17764093
000140 2d 43 5f 3e 8b 86 cc 3d 9a 1c 62 3e 8d 64 b5 be
       0.2180297 0.099865995 0.22081223 -0.35428277
000150 dd 67 a6 3d 3f 69 d5 be bf 8a 86 3e 9f ee 50 be
       0.08125279 -0.4168186 0.2627773 -0.20403527
000160 9c 9b 04 3f 4c 23 42 3e 34 9b d6 3d 3b 17 6f be
       0.5179994 0.18958777 0.104788214 -0.23348705
000170 fb 3d 38 3e 01 b2 81 3e dd 79 cc 3e ab 94 b5 3e
       0.17992394 0.2533112 0.39936724 0.35464987
000180 8f e4 1e 3d af c3 e3 3e 76 da 66 3c 2f ae 9c 3d
       0.03879219 0.44485232 0.014090171 0.076504104
000190 2c f5 92 3c a4 7c 90 3e 94 fd c0 3c 88 9c a9 bd
       0.017939173 0.28220093 0.023558415 -0.08281809
0001a0 c5 ea c5 3d 8b 84 c7 3d 1d c4 65 3e 2d fb a6 bb
       0.09663919 0.097420774 0.22438093 -0.0050958605
0001b0 8f aa d8 3e c1 19 02 3e 83 20 d4 3e ad bd 95 bd
       0.42317626 0.12705137 0.41431054 -0.073115684
0001c0 92 d0 bb bc b6 19 8e 3d 9b c9 d9 bd 3a 34 37 3e
       -0.022926603 0.06938498 -0.10634156 0.17891017
0001d0 87 7b 0f 3e e9 46 21 bc 69 cf b2 bd df 57 b9 3d
       0.14011966 -0.009843566 -0.087309666 0.09049963
0001e0 89 48 47 bd 67 24 ee 3d 87 4b a1 3b 25 7b a2 3e
       -0.04865316 0.11628037 0.0049223336 0.31734577
0001f0 91 74 9b 3c c7 3a 9a bb a0 36 94 3e 5d 4b d5 3d
       0.018976482 -0.004706714 0.28947926 0.10414765
000200 cf 7e d5 3e 42 dc 88 be 66 46 2b be 9c 08 0a 3e
       0.4169831 -0.26730543 -0.16726074 0.13479847
000210 bc dd 3d 3d 05 e7 af be c3 b0 78 3e 25 7f e7 be
       0.04635404 -0.3435594 0.24286179 -0.4521419
000220 01 a2 b3 bd 1a 80 c6 be 1c 01 51 3d 6e bb a4 be
       -0.08771134 -0.3876961 0.05102645 -0.32174248
000230 c1 0d 08 bf 8f 4b b5 be 80 c0 66 3e f1 33 e0 be
       -0.53145987 -0.3540921 0.2253437 -0.43789628
000240 0a bc 98 be d4 0a a8 bd 3a a0 42 3c 00 a9 e6 3e
       -0.29830962 -0.0820519 0.011879021 0.45050812
000250 89 31 9a bd 42 5c c0 3e 9c da f0 3d f7 a2 9c be
       -0.07528979 0.37570387 0.117604464 -0.30593082
000260 d5 70 8f 3e d6 8f a1 bd 44 ea c2 3e f4 f9 f7 be
       0.28015772 -0.07888763 0.38069355 -0.48432887
000270 39 26 a3 be be b1 a0 be 02 d1 9e 3e 66 16 b5 bc
       -0.318651 -0.31385607 0.31018835 -0.022105407
000280 d4 8c e1 3e 11 3d 82 3e fa 0e c3 be 60 ab 8b 3e
       0.44052756 0.25437215 -0.38097364 0.27279186
000290 42 00 1e 3e 81 22 e2 be 02 9e 3b 3e 91 16 04 be
       0.15429786 -0.4416695 0.18321994 -0.12899233
0002a0 73 6d ee 3e 92 cf de 3e b8 a6 b3 be 84 d0 a2 3d
       0.46567878 0.4351774 -0.35088134 0.079499274
0002b0 89 51 b3 be 39 60 3c be 8e 7d 99 3e 18 25 93 3e
       -0.35023144 -0.18396081 0.29978603 0.28739238
0002c0 79 10 45 be 4a be 32 be d3 e6 d8 be 21 59 74 be
       -0.19244565 -0.17455402 -0.42363605 -0.23862125
0002d0 1b df 93 3e 0f 6e b8 bd 56 e7 8a 3e 3e c1 57 3e
       0.28881153 -0.09005367 0.2712962 0.2106981
0002e0 ec 58 2b bf 41 82 d4 be 4e a2 8f 3e 5e 61 9e be
       -0.6693256 -0.41505626 0.28053516 -0.3093366
0002f0 40 81 a5 3e 28 97 cd be b9 6c 8c 3e df 91 dc be
       0.32325172 -0.40154386 0.274267 -0.4308004
000300 05 e5 b7 be 5f f1 4b bc 94 e6 94 be ef f6 46 be
       -0.35916916 -0.012447684 -0.29082167 -0.19430135
000310 84 7d bb be 2e a5 11 be 9b 99 a6 be d4 5f 21 be
       -0.36619198 -0.14223167 -0.32539067 -0.15759212
000320 77 cc ae 3e db 0f 2e bd 84 56 87 be 0e 76 ec be
       0.3414037 -0.04249559 -0.26433194 -0.4618382
000330 9c 13 f5 be d2 70 a4 be 0f 70 a8 3e 8c 9f 80 be
       -0.47866523 -0.32117325 0.32897994 -0.25121725
000340 c2 92 ed be 34 e4 ca 3e 52 fe 10 bf d9 1f 90 3e
       -0.4640103 0.3962723 -0.5663806 0.28149298
000350 a1 bd b0 be 62 0d 8d bd e0 d6 e0 be 1f 56 d2 3e
       -0.34519675 -0.06887318 -0.43913937 0.4108133
000360 0d f6 00 bf 7f e6 87 be a5 5e 79 be 16 4c 8a 3e
       -0.50375444 -0.26543042 -0.2435251 0.27011174
000370 bf 61 aa 3e 34 7a 6a be 29 96 b3 be 30 f9 a9 be
       0.332777 -0.2289818 -0.350755 -0.33197927
000380 51 4c 19 3e 53 29 03 bf c4 cd f0 3e f3 e5 8a bd
       0.14970519 -0.5123493 0.47031987 -0.067821406
000390 ac fa a5 3d 48 e0 b9 be 2b 62 36 be b6 94 7f be
       0.081044525 -0.36303926 -0.17810886 -0.24959072
0003a0 85 f1 99 be cd 8d 9a be 6f a8 fb be 72 dc c3 bd
       -0.30067077 -0.3018631 -0.49151942 -0.09563531
0003b0 3d 25 9d bd 69 4f a0 3e d7 3e 48 be a8 63 6a bb
       -0.07673118 0.31310585 -0.19555221 -0.0035764966
0003c0 36 76 2b bd e3 b5 82 3e 43 93 77 3e 1d 7c c4 3e
       -0.04186078 0.25529394 0.2417727 0.3837594
0003d0 ca fb bc 3e bc 4a 53 3e 8b ff 65 3e 7b 9d 4b be
       0.3691085 0.20633978 0.22460763 -0.19884293
0003e0 97 2d a4 3e e1 92 b9 be 01 20 4b be 64 d5 d2 be
       0.32066032 -0.36244872 -0.19836427 -0.4117843
0003f0 66 d8 c1 be 66 3a 4a 3e 2f 6b be be 47 52 07 be
       -0.3786041 0.1974884 -0.3719115 -0.1321498

net.2.bias f4 [64]
000000 03 02 58 3d 78 88 8e 3d 70 a1 11 3e ef 67 ac 3d
       0.052736294 0.06959623 0.1422174 0.08418261
000010 16 da 7a 3c 76 83 d3 bd f7 2d 75 bd f2 c5 98 3d
       0.015310785 -0.103278086 -0.05985829 0.0745963
000020 c3 6c cf 3d 44 f0 7e 3d b4 db f9 3d 30 2d 49 3e
       0.101281665 0.062240854 0.12200108 0.19646144
000030 0f 20 97 3d 1d 11 27 3d f6 9f 66 3d 18 de 58 3e
       0.073791616 0.040787805 0.056304894 0.21178472
000040 33 44 e6 bd 5d 4d 9a 3c 13 71 f3 3d 54 c4 88 3d
       -0.11243477 0.018835718 0.118868016 0.066780716
000050 24 cc 5a 3d 48 4f 96 bd 7b 09 1b 3e f1 1f 1b 3d
       0.05341734 -0.073393404 0.15140335 0.03787226
000060 48 3d f9 3d a8 a6 34 3e 7e ce b6 3c 32 65 1a 39
       0.121698916 0.176417 0.02231526 0.00014724283
000070 b9 2d d6 3c 88 9b a4 3d 5c 1e da 3d b7 25 99 bd
       0.02614485 0.08037478 0.10650322 -0.07477897
000080 fa 1e bf bd dd 61 3e 3e 0d dd 87 3e b1 21 d4 3d
       -0.0933208 0.1859202 0.26535836 0.103579886
000090 0b bd 10 be 8f 54 ba 3e bc c1 29 3e c9 7e 22 3e
       -0.14134614 0.36392638 0.1657781 0.15868677
0000a0 a0 82 26 3e 64 ad 15 be dc 4b 87 3c 96 fa ad 3d
       0.16260767 -0.14616925 0.016515665 0.08495061
0000b0 c5 02 00 3e 87 89 c3 bd 11 c5 cd 3d 43 4e 5b bd
       0.12501056 -0.09547716 0.10047353 -0.053541433
0000c0 f9 4f 24 3e 7b 2e 26 bd fd 70 b5 3b 04 35 e6 3d
       0.16046132 -0.04057167 0.005537151 0.11240581
0000d0 b0 6c bf 3c 98 48 51 3d 5d 40 6b 3e 9e 85 90 3e
       0.023367256 0.05109462 0.22973771 0.28226942
0000e0 3c db fc 3c 16 67 97 3d 5d 0b 5b 3e 0e 52 d9 3d
       0.030866258 0.07392709 0.21391053 0.10611354
0000f0 7f 1e 86 3d ae c9 2c 3e 94 71 91 bc 3b c8 36 3e
       0.065487854 0.1687381 -0.017754354 0.1784982

net.4.weight f4 [3, 64]
000000 13 80 a6 3e 0f 79 84 3e c8 1b a5 3e ec 18 9b 3e
       0.32519588 0.2587361 0.32247758 0.3029245
000010 0a 9e 7d be 33 eb 5c bd 99 58 9d be 60 85 9a 3e
       -0.24767318 -0.05393524 -0.30731657 0.30179882
000020 46 fb 02 3f 5c 77 c4 3e f8 df ed bc f5 b8 c0 be
       0.5116466 0.38372314 -0.02903746 -0.3764111
000030 97 b7 b9 3e 83 74 d9 3e 86 11 9a 3e 06 08 f6 3e
       0.3627288 0.42471704 0.30091494 0.48052996
000040 0d 27 f7 3e bd 83 89 3e 2a 86 fd 3e 44 08 03 3f
       0.4827198 0.2685832 0.49516422 0.5118449
000050 6d c9 54 be 32 d5 b1 bc 11 8a ba 3e 03 bd 07 3f
       -0.20779963 -0.021708105 0.3643346 0.53022784
000060 89 45 20 3e 8c 12 95 be 77 fb a0 be 0c 17 a8 3e
       0.15651526 -0.29115713 -0.31441852 0.32830083
000070 e7 4e a5 be 1c 0b fd 3e 0a c6 80 be c0 f9 a7 3e
       -0.3228676 0.49422538 -0.25151092 0.32807732
000080 e6 c8 ec bd 13 c9 00 3e e9 19 a6 be c7 e5 d2 3d
       -0.11561756 0.12576704 -0.32441643 0.10297733
000090 04 c3 4b bd 3b 8a 22 bf ba 67 5f bd 1d 05 1b 3e
       -0.04974653 -0.6349217 -0.05454228 0.1513867
0000a0 6f dc d5 3e e6 0b 2e 3e 03 eb be 3e 34 56 83 3e
       0.4176974 0.16996726 0.37288675 0.25651705
0000b0 f0 76 88 3d c7 41 3c bd 76 42 37 3e c3 0f 4a 3d
       0.066633105 -0.045961168 0.17896447 0.049331438
0000c0 75 48 61 bd d5 76 c9 3e 05 ac d2 bd 83 15 02 be
       -0.05500074 0.39348474 -0.10286716 -0.12703519
0000d0 8b 58 9e be 5b 78 96 be 42 7f 49 be f5 ee be be
       -0.30926928 -0.293887 -0.19677451 -0.37291685
0000e0 0c 02 2d be 98 0b e0 3e d3 2b a0 3e 34 35 c0 3e
       -0.16895312 0.43758845 0.31283435 0.3754059
0000f0 10 06 92 be f7 bf 26 3e 8c 9e 15 3d 81 9a be bd
       -0.2852025 0.16284166 0.036528155 -0.09306813
000100 16 43 da 3e da 36 66 bf dc d8 cf 3e e3 31 f0 bd
       0.42629308 -0.89927447 0.40595138 -0.11728265
000110 e3 2e 79 3e 8b b0 52 3e 51 99 6a 3e ca c5 ad be
       0.24334292 0.20575158 0.22910048 -0.33939964
000120 a8 58 de 3e 16 40 bc 3e 32 18 be 3e 45 31 ec be
       0.43427014 0.36767644 0.37127835 -0.4613134
000130 e9 1c 36 be e2 b2 aa 3e 6d ce bc bd 4d 08 28 3e
       -0.17784466 0.33339602 -0.0921906 0.16409416
000140 1e 72 99 3e 7c c8 2c bd 6c 7b db 3e 53 f9 c3 3e
       0.29969877 -0.042183384 0.428676 0.38276157
000150 bc ca 58 be 9e 04 1d be 56 05 dd bd d4 32 81 bc
       -0.21171087 -0.15333793 -0.107920334 -0.015771307
000160 85 fc c0 3e 85 67 99 be 95 40 26 bf 29 4e b6 3e
       0.37692657 -0.29961792 -0.64942294 0.35606506
000170 d3 40 de be b3 69 d2 3e 41 ad a4 3e bd ca 25 bf
       -0.43408832 0.41096267 0.32163432 -0.6476248
000180 a5 b8 f0 bb 14 06 9e 3e 5b 08 70 be 1c 5e b9 3e
       -0.00734623 0.30864012 -0.23440687 0.36204612
000190 ca 48 49 3e 56 e3 2f be c1 ba 46 be 0f c6 9a bd
       0.19656673 -0.17176566 -0.19407178 -0.07557308
0001a0 ed d4 f4 3d 16 f6 7f bd 9b 09 b1 3e 50 1d 9f be
       0.11954675 -0.062490545 0.3457764 -0.3107705
0001b0 31 39 bb 3e 17 9e 35 3d 54 53 ab 3e bc 58 f9 bd
       0.3656707 0.04434022 0.33462012 -0.12175128
0001c0 df 85 9c 3e a8 7b 10 be 37 10 ab be 74 80 7a 3e
       0.30570886 -0.14109671 -0.33410808 0.24463063
0001d0 02 38 89 3e 29 aa 2d bf f9 de 76 be f3 2a 97 be
       0.26800543 -0.6783777 -0.24108495 -0.29524955
0001e0 28 4f 78 3e 7f 4a b9 bd e1 06 7a 3e 71 da a0 3e
       0.24248946 -0.09047412 0.24416687 0.31416658
0001f0 3a ff 13 bf a0 d6 89 3e 90 b8 96 be 37 1b 81 3e
       -0.5781132 0.26921558 -0.29437685 0.25216076
000200 d6 61 09 be 18 8c 4c 3e 24 d4 b8 3e fd be d3 3e
       -0.13416228 0.19975317 0.3609935 0.4135665
000210 26 ca b4 be 37 dc db be 52 a6 b5 be 2f e4 a9 be
       -0.35310477 -0.42941448 -0.35478455 -0.33181903
000220 7f d2 34 3c 2a 8b 30 bc 27 1b 88 bd 3a 17 46 be
       0.011036514 -0.010775367 -0.06645804 -0.19344798
000230 1b 16 c1 3e b9 05 82 3d 22 a9 c2 3e fb 22 a4 3e
       0.37712178 0.06348748 0.38019663 0.32057938
000240 5e aa 9c be 05 04 56 bf 2d 43 9b bd 64 b7 7d bd
       -0.3059873 -0.83599883 -0.07581172 -0.061942473
000250 70 70 c5 be a9 79 32 bf 39 9e b6 3e 60 29 a5 be
       -0.38562346 -0.6971689 0.3566759 -0.3225813
000260 dc 7f 3c bc 9a 15 9a be eb ff c7 bb 12 7a e3 bd
       -0.011505093 -0.30094606 -0.006103506 -0.111072674
000270 ca 12 13 be 85 2b e0 3d b8 92 a7 3e 6f 51 1c 3f
       -0.14362636 0.10945801 0.32729125 0.6106176
000280 ad 48 83 3d 1b c3 9c 3e 24 87 5c 3e 5f f0 8e 3e
       0.06410346 0.30617604 0.21535927 0.27917764
000290 a3 3a e0 be df 48 82 be 21 ca af 3e 4a c7 bc 3e
       -0.43794736 -0.2544622 0.343339 0.36870795
0002a0 ef 58 bf 3e 27 df 6b bd 9e d9 81 3e 66 f3 78 be
       0.37372538 -0.05758586 0.2536134 -0.24311599
0002b0 87 81 90 3e ea c9 d8 3d 2b 53 20 be 93 d3 cb bc
       0.28223822 0.10585387 -0.15656726 -0.02488116
0002c0 9a c4 aa 3e 3a cf e5 3e 0e d9 a8 be ac 93 cb 3e
       0.3335312 0.44884664 -0.329781 0.39761102
0002d0 ea 2d c7 be 25 4f 8e be b8 07 af 3e c5 5c 30 3e
       -0.38902217 -0.27794757 0.34185576 0.17222889
0002e0 c8 40 b2 be d1 4d 49 3e ea 2b d1 3e 86 22 c4 3e
       -0.3481505 0.19658591 0.40853816 0.3830759
0002f0 bc 1d 59 3e 54 91 bf 3e 3f 67 92 be 9f cc c6 3e
       0.21202749 0.37415564 -0.28594396 0.38827989

net.4.bias f4 [3]
000000 cb 0f 83 bd 4b ce 82 bd 0e d6 f4 3d
       -0.06399497 -0.063870035 0.1195489
